<?xml version="1.0"?>
<net name="Model0" version="11">
	<layers>
		<layer id="3" name="input_ids" type="Parameter" version="opset1">
			<data shape="?,?" element_type="i64" />
			<output>
				<port id="0" precision="I64" names="input_ids">
					<dim>-1</dim>
					<dim>-1</dim>
				</port>
			</output>
		</layer>
		<layer id="2" name="attention_mask" type="Parameter" version="opset1">
			<data shape="?,?" element_type="i64" />
			<output>
				<port id="0" precision="I64" names="attention_mask">
					<dim>-1</dim>
					<dim>-1</dim>
				</port>
			</output>
		</layer>
		<layer id="1" name="position_ids" type="Parameter" version="opset1">
			<data shape="?,?" element_type="i64" />
			<output>
				<port id="0" precision="I64" names="position_ids">
					<dim>-1</dim>
					<dim>-1</dim>
				</port>
			</output>
		</layer>
		<layer id="0" name="beam_idx" type="Parameter" version="opset1">
			<data shape="?" element_type="i32" />
			<output>
				<port id="0" precision="I32" names="beam_idx">
					<dim>-1</dim>
				</port>
			</output>
		</layer>
		<layer id="4" name="Constant_65978" type="Const" version="opset1">
			<data element_type="f32" shape="" offset="0" size="4" />
			<output>
				<port id="0" precision="FP32" />
			</output>
		</layer>
		<layer id="5" name="ShapeOf_65964" type="ShapeOf" version="opset3">
			<data output_type="i64" />
			<input>
				<port id="0" precision="I64">
					<dim>-1</dim>
					<dim>-1</dim>
				</port>
			</input>
			<output>
				<port id="1" precision="I64">
					<dim>2</dim>
				</port>
			</output>
		</layer>
		<layer id="6" name="Constant_65966" type="Const" version="opset1">
			<data element_type="i64" shape="1" offset="4" size="8" />
			<output>
				<port id="0" precision="I64">
					<dim>1</dim>
				</port>
			</output>
		</layer>
		<layer id="7" name="Constant_65968" type="Const" version="opset1">
			<data element_type="i64" shape="" offset="4" size="8" />
			<output>
				<port id="0" precision="I64" />
			</output>
		</layer>
		<layer id="8" name="Gather_65969" type="Gather" version="opset8">
			<data batch_dims="0" />
			<input>
				<port id="0" precision="I64">
					<dim>2</dim>
				</port>
				<port id="1" precision="I64">
					<dim>1</dim>
				</port>
				<port id="2" precision="I64" />
			</input>
			<output>
				<port id="3" precision="I64">
					<dim>1</dim>
				</port>
			</output>
		</layer>
		<layer id="9" name="Constant_65971" type="Const" version="opset1">
			<data element_type="i64" shape="1" offset="12" size="8" />
			<output>
				<port id="0" precision="I64">
					<dim>1</dim>
				</port>
			</output>
		</layer>
		<layer id="10" name="Constant_65973" type="Const" version="opset1">
			<data element_type="i64" shape="1" offset="4" size="8" />
			<output>
				<port id="0" precision="I64">
					<dim>1</dim>
				</port>
			</output>
		</layer>
		<layer id="11" name="Constant_65975" type="Const" version="opset1">
			<data element_type="i64" shape="1" offset="20" size="8" />
			<output>
				<port id="0" precision="I64">
					<dim>1</dim>
				</port>
			</output>
		</layer>
		<layer id="12" name="Concat_65976" type="Concat" version="opset1">
			<data axis="0" />
			<input>
				<port id="0" precision="I64">
					<dim>1</dim>
				</port>
				<port id="1" precision="I64">
					<dim>1</dim>
				</port>
				<port id="2" precision="I64">
					<dim>1</dim>
				</port>
				<port id="3" precision="I64">
					<dim>1</dim>
				</port>
			</input>
			<output>
				<port id="4" precision="I64">
					<dim>4</dim>
				</port>
			</output>
		</layer>
		<layer id="13" name="Broadcast_65979" type="Broadcast" version="opset3">
			<data mode="numpy" />
			<input>
				<port id="0" precision="FP32" />
				<port id="1" precision="I64">
					<dim>4</dim>
				</port>
			</input>
			<output>
				<port id="2" precision="FP32">
					<dim>-1</dim>
					<dim>4</dim>
					<dim>0</dim>
					<dim>64</dim>
				</port>
			</output>
		</layer>
		<layer id="14" name="ReadValue_65576" type="ReadValue" version="opset6">
			<data variable_id="past_key_values.9.valuepresent.9.value" variable_type="f32" variable_shape="?,4,?,64" />
			<input>
				<port id="0" precision="FP32">
					<dim>-1</dim>
					<dim>4</dim>
					<dim>0</dim>
					<dim>64</dim>
				</port>
			</input>
			<output>
				<port id="1" precision="FP32" names="past_key_values.9.value">
					<dim>-1</dim>
					<dim>4</dim>
					<dim>-1</dim>
					<dim>64</dim>
				</port>
			</output>
		</layer>
		<layer id="15" name="Constant_65030" type="Const" version="opset1">
			<data element_type="i64" shape="" offset="4" size="8" />
			<output>
				<port id="0" precision="I64" />
			</output>
		</layer>
		<layer id="16" name="Gather_65031" type="Gather" version="opset8">
			<data batch_dims="0" />
			<input>
				<port id="0" precision="FP32">
					<dim>-1</dim>
					<dim>4</dim>
					<dim>-1</dim>
					<dim>64</dim>
				</port>
				<port id="1" precision="I32">
					<dim>-1</dim>
				</port>
				<port id="2" precision="I64" />
			</input>
			<output>
				<port id="3" precision="FP32">
					<dim>-1</dim>
					<dim>4</dim>
					<dim>-1</dim>
					<dim>64</dim>
				</port>
			</output>
		</layer>
		<layer id="17" name="Constant_56778" type="Const" version="opset1">
			<data element_type="f32" shape="1, 1, 2048" offset="28" size="8192" />
			<output>
				<port id="0" precision="FP32">
					<dim>1</dim>
					<dim>1</dim>
					<dim>2048</dim>
				</port>
			</output>
		</layer>
		<layer id="18" name="self.model.embed_tokens.weight" type="Const" version="opset1">
			<data element_type="u8" shape="32000, 2048" offset="8220" size="65536000" />
			<output>
				<port id="0" precision="U8">
					<dim>32000</dim>
					<dim>2048</dim>
				</port>
			</output>
		</layer>
		<layer id="19" name="Convert_82815" type="Convert" version="opset1">
			<data destination_type="f16" />
			<input>
				<port id="0" precision="U8">
					<dim>32000</dim>
					<dim>2048</dim>
				</port>
			</input>
			<output>
				<port id="1" precision="FP16">
					<dim>32000</dim>
					<dim>2048</dim>
				</port>
			</output>
		</layer>
		<layer id="20" name="self.model.embed_tokens.weight/zero_point" type="Const" version="opset1">
			<data element_type="u8" shape="32000, 1" offset="65544220" size="32000" />
			<output>
				<port id="0" precision="U8">
					<dim>32000</dim>
					<dim>1</dim>
				</port>
			</output>
		</layer>
		<layer id="21" name="Convert_82818" type="Convert" version="opset1">
			<data destination_type="f16" />
			<input>
				<port id="0" precision="U8">
					<dim>32000</dim>
					<dim>1</dim>
				</port>
			</input>
			<output>
				<port id="1" precision="FP16">
					<dim>32000</dim>
					<dim>1</dim>
				</port>
			</output>
		</layer>
		<layer id="22" name="self.model.embed_tokens.weight/zero_point/subtract" type="Subtract" version="opset1">
			<data auto_broadcast="numpy" />
			<input>
				<port id="0" precision="FP16">
					<dim>32000</dim>
					<dim>2048</dim>
				</port>
				<port id="1" precision="FP16">
					<dim>32000</dim>
					<dim>1</dim>
				</port>
			</input>
			<output>
				<port id="2" precision="FP16">
					<dim>32000</dim>
					<dim>2048</dim>
				</port>
			</output>
		</layer>
		<layer id="23" name="self.model.embed_tokens.weight/scale" type="Const" version="opset1">
			<data element_type="f16" shape="32000, 1" offset="65576220" size="64000" />
			<output>
				<port id="0" precision="FP16">
					<dim>32000</dim>
					<dim>1</dim>
				</port>
			</output>
		</layer>
		<layer id="24" name="self.model.embed_tokens.weight/fq_weights_0" type="Multiply" version="opset1">
			<data auto_broadcast="numpy" />
			<input>
				<port id="0" precision="FP16">
					<dim>32000</dim>
					<dim>2048</dim>
				</port>
				<port id="1" precision="FP16">
					<dim>32000</dim>
					<dim>1</dim>
				</port>
			</input>
			<output>
				<port id="2" precision="FP16">
					<dim>32000</dim>
					<dim>2048</dim>
				</port>
			</output>
		</layer>
		<layer id="25" name="__module.model.embed_tokens/ov_ext::embedding/Convert" type="Convert" version="opset1">
			<data destination_type="f32" />
			<rt_info>
				<attribute name="decompression" version="0" />
			</rt_info>
			<input>
				<port id="0" precision="FP16">
					<dim>32000</dim>
					<dim>2048</dim>
				</port>
			</input>
			<output>
				<port id="1" precision="FP32">
					<dim>32000</dim>
					<dim>2048</dim>
				</port>
			</output>
		</layer>
		<layer id="26" name="__module.model.embed_tokens/ov_ext::embedding/Convert_1" type="Convert" version="opset1">
			<data destination_type="i32" />
			<input>
				<port id="0" precision="I64">
					<dim>-1</dim>
					<dim>-1</dim>
				</port>
			</input>
			<output>
				<port id="1" precision="I32">
					<dim>-1</dim>
					<dim>-1</dim>
				</port>
			</output>
		</layer>
		<layer id="27" name="__module.model.embed_tokens/ov_ext::embedding/Constant" type="Const" version="opset1">
			<data element_type="i32" shape="" offset="0" size="4" />
			<output>
				<port id="0" precision="I32" />
			</output>
		</layer>
		<layer id="28" name="__module.model.embed_tokens/ov_ext::embedding/Gather" type="Gather" version="opset8">
			<data batch_dims="0" />
			<input>
				<port id="0" precision="FP32">
					<dim>32000</dim>
					<dim>2048</dim>
				</port>
				<port id="1" precision="I32">
					<dim>-1</dim>
					<dim>-1</dim>
				</port>
				<port id="2" precision="I32" />
			</input>
			<output>
				<port id="3" precision="FP32" names="232,314,325,hidden_states.1,inputs_embeds">
					<dim>-1</dim>
					<dim>-1</dim>
					<dim>2048</dim>
				</port>
			</output>
		</layer>
		<layer id="29" name="Constant_56706" type="Const" version="opset1">
			<data element_type="f32" shape="1, 1, 2048" offset="65640220" size="8192" />
			<output>
				<port id="0" precision="FP32">
					<dim>1</dim>
					<dim>1</dim>
					<dim>2048</dim>
				</port>
			</output>
		</layer>
		<layer id="30" name="Constant_56705" type="Const" version="opset1">
			<data element_type="f32" shape="1, 1, 1" offset="65648412" size="4" />
			<output>
				<port id="0" precision="FP32">
					<dim>1</dim>
					<dim>1</dim>
					<dim>1</dim>
				</port>
			</output>
		</layer>
		<layer id="31" name="Constant_56703" type="Const" version="opset1">
			<data element_type="f32" shape="1, 1, 1" offset="65648416" size="4" />
			<output>
				<port id="0" precision="FP32">
					<dim>1</dim>
					<dim>1</dim>
					<dim>1</dim>
				</port>
			</output>
		</layer>
		<layer id="32" name="__module.model.layers.0.input_layernorm/aten::pow/Power" type="Power" version="opset1">
			<data auto_broadcast="numpy" />
			<input>
				<port id="0" precision="FP32">
					<dim>-1</dim>
					<dim>-1</dim>
					<dim>2048</dim>
				</port>
				<port id="1" precision="FP32">
					<dim>1</dim>
					<dim>1</dim>
					<dim>1</dim>
				</port>
			</input>
			<output>
				<port id="2" precision="FP32" names="315">
					<dim>-1</dim>
					<dim>-1</dim>
					<dim>2048</dim>
				</port>
			</output>
		</layer>
		<layer id="33" name="Constant_381" type="Const" version="opset1">
			<data element_type="i64" shape="1" offset="65648420" size="8" />
			<output>
				<port id="0" precision="I64" names="316">
					<dim>1</dim>
				</port>
			</output>
		</layer>
		<layer id="34" name="__module.model.layers.0.input_layernorm/aten::mean/ReduceMean" type="ReduceMean" version="opset1">
			<data keep_dims="true" />
			<input>
				<port id="0" precision="FP32">
					<dim>-1</dim>
					<dim>-1</dim>
					<dim>2048</dim>
				</port>
				<port id="1" precision="I64">
					<dim>1</dim>
				</port>
			</input>
			<output>
				<port id="2" precision="FP32" names="317,variance.1">
					<dim>-1</dim>
					<dim>-1</dim>
					<dim>1</dim>
				</port>
			</output>
		</layer>
		<layer id="35" name="Constant_56704" type="Const" version="opset1">
			<data element_type="f32" shape="1, 1, 1" offset="65648428" size="4" />
			<output>
				<port id="0" precision="FP32">
					<dim>1</dim>
					<dim>1</dim>
					<dim>1</dim>
				</port>
			</output>
		</layer>
		<layer id="36" name="__module.model.layers.0.input_layernorm/aten::add/Add" type="Add" version="opset1">
			<data auto_broadcast="numpy" />
			<input>
				<port id="0" precision="FP32">
					<dim>-1</dim>
					<dim>-1</dim>
					<dim>1</dim>
				</port>
				<port id="1" precision="FP32">
					<dim>1</dim>
					<dim>1</dim>
					<dim>1</dim>
				</port>
			</input>
			<output>
				<port id="2" precision="FP32" names="318">
					<dim>-1</dim>
					<dim>-1</dim>
					<dim>1</dim>
				</port>
			</output>
		</layer>
		<layer id="37" name="__module.model.layers.0.input_layernorm/aten::rsqrt/Sqrt" type="Sqrt" version="opset1">
			<input>
				<port id="0" precision="FP32">
					<dim>-1</dim>
					<dim>-1</dim>
					<dim>1</dim>
				</port>
			</input>
			<output>
				<port id="1" precision="FP32">
					<dim>-1</dim>
					<dim>-1</dim>
					<dim>1</dim>
				</port>
			</output>
		</layer>
		<layer id="38" name="__module.model.layers.0.input_layernorm/aten::rsqrt/Divide" type="Divide" version="opset1">
			<data auto_broadcast="numpy" m_pythondiv="true" />
			<input>
				<port id="0" precision="FP32">
					<dim>1</dim>
					<dim>1</dim>
					<dim>1</dim>
				</port>
				<port id="1" precision="FP32">
					<dim>-1</dim>
					<dim>-1</dim>
					<dim>1</dim>
				</port>
			</input>
			<output>
				<port id="2" precision="FP32" names="319">
					<dim>-1</dim>
					<dim>-1</dim>
					<dim>1</dim>
				</port>
			</output>
		</layer>
		<layer id="39" name="__module.model.layers.0.input_layernorm/aten::mul/Multiply" type="Multiply" version="opset1">
			<data auto_broadcast="numpy" />
			<input>
				<port id="0" precision="FP32">
					<dim>-1</dim>
					<dim>-1</dim>
					<dim>2048</dim>
				</port>
				<port id="1" precision="FP32">
					<dim>-1</dim>
					<dim>-1</dim>
					<dim>1</dim>
				</port>
			</input>
			<output>
				<port id="2" precision="FP32" names="320,321,hidden_states.3,hidden_states.5">
					<dim>-1</dim>
					<dim>-1</dim>
					<dim>2048</dim>
				</port>
			</output>
		</layer>
		<layer id="40" name="__module.model.layers.0.input_layernorm/aten::mul/Multiply_1" type="Multiply" version="opset1">
			<data auto_broadcast="numpy" />
			<input>
				<port id="0" precision="FP32">
					<dim>1</dim>
					<dim>1</dim>
					<dim>2048</dim>
				</port>
				<port id="1" precision="FP32">
					<dim>-1</dim>
					<dim>-1</dim>
					<dim>2048</dim>
				</port>
			</input>
			<output>
				<port id="2" precision="FP32" names="322,324,hidden_states.7">
					<dim>-1</dim>
					<dim>-1</dim>
					<dim>2048</dim>
				</port>
			</output>
		</layer>
		<layer id="41" name="self.model.layers.0.self_attn.q_proj.weight" type="Const" version="opset1">
			<data element_type="i4" shape="2048, 16, 128" offset="65648432" size="2097152" />
			<output>
				<port id="0" precision="I4">
					<dim>2048</dim>
					<dim>16</dim>
					<dim>128</dim>
				</port>
			</output>
		</layer>
		<layer id="42" name="Convert_405578" type="Convert" version="opset1">
			<data destination_type="f16" />
			<input>
				<port id="0" precision="I4">
					<dim>2048</dim>
					<dim>16</dim>
					<dim>128</dim>
				</port>
			</input>
			<output>
				<port id="1" precision="FP16">
					<dim>2048</dim>
					<dim>16</dim>
					<dim>128</dim>
				</port>
			</output>
		</layer>
		<layer id="43" name="self.model.layers.0.self_attn.q_proj.weight/scale" type="Const" version="opset1">
			<data element_type="f16" shape="2048, 16, 1" offset="67745584" size="65536" />
			<output>
				<port id="0" precision="FP16">
					<dim>2048</dim>
					<dim>16</dim>
					<dim>1</dim>
				</port>
			</output>
		</layer>
		<layer id="44" name="self.model.layers.0.self_attn.q_proj.weight/fq_weights_1" type="Multiply" version="opset1">
			<data auto_broadcast="numpy" />
			<input>
				<port id="0" precision="FP16">
					<dim>2048</dim>
					<dim>16</dim>
					<dim>128</dim>
				</port>
				<port id="1" precision="FP16">
					<dim>2048</dim>
					<dim>16</dim>
					<dim>1</dim>
				</port>
			</input>
			<output>
				<port id="2" precision="FP16">
					<dim>2048</dim>
					<dim>16</dim>
					<dim>128</dim>
				</port>
			</output>
		</layer>
		<layer id="45" name="Constant_405582" type="Const" version="opset1">
			<data element_type="i64" shape="2" offset="67811120" size="16" />
			<output>
				<port id="0" precision="I64">
					<dim>2</dim>
				</port>
			</output>
		</layer>
		<layer id="46" name="Reshape_405583" type="Reshape" version="opset1">
			<data special_zero="false" />
			<input>
				<port id="0" precision="FP16">
					<dim>2048</dim>
					<dim>16</dim>
					<dim>128</dim>
				</port>
				<port id="1" precision="I64">
					<dim>2</dim>
				</port>
			</input>
			<output>
				<port id="2" precision="FP16">
					<dim>2048</dim>
					<dim>2048</dim>
				</port>
			</output>
		</layer>
		<layer id="47" name="__module.model.layers.0.self_attn.q_proj/ov_ext::linear/Convert" type="Convert" version="opset1">
			<data destination_type="f32" />
			<rt_info>
				<attribute name="decompression" version="0" />
			</rt_info>
			<input>
				<port id="0" precision="FP16">
					<dim>2048</dim>
					<dim>2048</dim>
				</port>
			</input>
			<output>
				<port id="1" precision="FP32">
					<dim>2048</dim>
					<dim>2048</dim>
				</port>
			</output>
		</layer>
		<layer id="48" name="__module.model.layers.0.self_attn.q_proj/ov_ext::linear/MatMul" type="MatMul" version="opset1">
			<data transpose_a="false" transpose_b="true" />
			<input>
				<port id="0" precision="FP32">
					<dim>-1</dim>
					<dim>-1</dim>
					<dim>2048</dim>
				</port>
				<port id="1" precision="FP32">
					<dim>2048</dim>
					<dim>2048</dim>
				</port>
			</input>
			<output>
				<port id="2" precision="FP32" names="333">
					<dim>-1</dim>
					<dim>-1</dim>
					<dim>2048</dim>
				</port>
			</output>
		</layer>
		<layer id="49" name="Constant_63456" type="Const" version="opset1">
			<data element_type="i64" shape="4" offset="67811136" size="32" />
			<output>
				<port id="0" precision="I64">
					<dim>4</dim>
				</port>
			</output>
		</layer>
		<layer id="50" name="__module.model.layers.0.self_attn/aten::view/Reshape" type="Reshape" version="opset1">
			<data special_zero="true" />
			<input>
				<port id="0" precision="FP32">
					<dim>-1</dim>
					<dim>-1</dim>
					<dim>2048</dim>
				</port>
				<port id="1" precision="I64">
					<dim>4</dim>
				</port>
			</input>
			<output>
				<port id="2" precision="FP32" names="335">
					<dim>-1</dim>
					<dim>-1</dim>
					<dim>32</dim>
					<dim>64</dim>
				</port>
			</output>
		</layer>
		<layer id="51" name="__module.model.layers.0.self_attn/aten::transpose/Constant" type="Const" version="opset1">
			<data element_type="i32" shape="4" offset="67811168" size="16" />
			<output>
				<port id="0" precision="I32">
					<dim>4</dim>
				</port>
			</output>
		</layer>
		<layer id="52" name="__module.model.layers.0.self_attn/aten::transpose/Transpose" type="Transpose" version="opset1">
			<input>
				<port id="0" precision="FP32">
					<dim>-1</dim>
					<dim>-1</dim>
					<dim>32</dim>
					<dim>64</dim>
				</port>
				<port id="1" precision="I32">
					<dim>4</dim>
				</port>
			</input>
			<output>
				<port id="2" precision="FP32" names="336,q.1">
					<dim>-1</dim>
					<dim>32</dim>
					<dim>-1</dim>
					<dim>64</dim>
				</port>
			</output>
		</layer>
		<layer id="53" name="__module.model.rotary_emb/aten::to/Convert" type="Const" version="opset1">
			<data element_type="f32" shape="1, 32, 1" offset="67811184" size="128" />
			<output>
				<port id="0" precision="FP32" names="285">
					<dim>1</dim>
					<dim>32</dim>
					<dim>1</dim>
				</port>
			</output>
		</layer>
		<layer id="54" name="ShapeOf_58173" type="ShapeOf" version="opset3">
			<data output_type="i64" />
			<input>
				<port id="0" precision="FP32">
					<dim>-1</dim>
					<dim>-1</dim>
					<dim>2048</dim>
				</port>
			</input>
			<output>
				<port id="1" precision="I64">
					<dim>3</dim>
				</port>
			</output>
		</layer>
		<layer id="55" name="Constant_58174" type="Const" version="opset1">
			<data element_type="i64" shape="1" offset="4" size="8" />
			<output>
				<port id="0" precision="I64">
					<dim>1</dim>
				</port>
			</output>
		</layer>
		<layer id="56" name="Constant_58175" type="Const" version="opset1">
			<data element_type="i64" shape="" offset="4" size="8" />
			<output>
				<port id="0" precision="I64" />
			</output>
		</layer>
		<layer id="57" name="Gather_58176" type="Gather" version="opset8">
			<data batch_dims="0" />
			<input>
				<port id="0" precision="I64">
					<dim>3</dim>
				</port>
				<port id="1" precision="I64">
					<dim>1</dim>
				</port>
				<port id="2" precision="I64" />
			</input>
			<output>
				<port id="3" precision="I64" names="1017,1033,1175,1191,1333,1349,1491,1507,1649,1665,1807,1823,1965,1981,2123,2139,2281,2297,2439,2455,2597,2613,2755,2771,286,2913,2929,3071,3087,3229,3245,3387,3403,3545,3561,3703,3719,385,401,543,559,701,717,859,875">
					<dim>1</dim>
				</port>
			</output>
		</layer>
		<layer id="58" name="Constant_49936" type="Const" version="opset1">
			<data element_type="i64" shape="1" offset="67811312" size="8" />
			<output>
				<port id="0" precision="I64">
					<dim>1</dim>
				</port>
			</output>
		</layer>
		<layer id="59" name="Constant_49938" type="Const" version="opset1">
			<data element_type="i64" shape="1" offset="67811312" size="8" />
			<output>
				<port id="0" precision="I64">
					<dim>1</dim>
				</port>
			</output>
		</layer>
		<layer id="60" name="__module.model.rotary_emb/prim::ListConstruct" type="Concat" version="opset1">
			<data axis="0" />
			<input>
				<port id="0" precision="I64">
					<dim>1</dim>
				</port>
				<port id="1" precision="I64">
					<dim>1</dim>
				</port>
				<port id="2" precision="I64">
					<dim>1</dim>
				</port>
			</input>
			<output>
				<port id="3" precision="I64">
					<dim>3</dim>
				</port>
			</output>
		</layer>
		<layer id="61" name="__module.model.rotary_emb/aten::expand/Broadcast" type="Broadcast" version="opset3">
			<data mode="bidirectional" />
			<input>
				<port id="0" precision="FP32">
					<dim>1</dim>
					<dim>32</dim>
					<dim>1</dim>
				</port>
				<port id="1" precision="I64">
					<dim>3</dim>
				</port>
			</input>
			<output>
				<port id="2" precision="FP32" names="288,289,294,inv_freq_expanded,inv_freq_expanded.1">
					<dim>-1</dim>
					<dim>32</dim>
					<dim>1</dim>
				</port>
			</output>
		</layer>
		<layer id="62" name="182" type="Const" version="opset1">
			<data element_type="i64" shape="" offset="67811312" size="8" />
			<output>
				<port id="0" precision="I64" names="182" />
			</output>
		</layer>
		<layer id="63" name="__module.model.rotary_emb/aten::unsqueeze/Unsqueeze_2" type="Unsqueeze" version="opset1">
			<input>
				<port id="0" precision="I64">
					<dim>-1</dim>
					<dim>-1</dim>
				</port>
				<port id="1" precision="I64" />
			</input>
			<output>
				<port id="2" precision="I64" names="291,292">
					<dim>-1</dim>
					<dim>1</dim>
					<dim>-1</dim>
				</port>
			</output>
		</layer>
		<layer id="64" name="__module.model.rotary_emb/aten::to/Convert_3" type="Convert" version="opset1">
			<data destination_type="f32" />
			<input>
				<port id="0" precision="I64">
					<dim>-1</dim>
					<dim>1</dim>
					<dim>-1</dim>
				</port>
			</input>
			<output>
				<port id="1" precision="FP32" names="293,295,position_ids_expanded,position_ids_expanded.1">
					<dim>-1</dim>
					<dim>1</dim>
					<dim>-1</dim>
				</port>
			</output>
		</layer>
		<layer id="65" name="__module.model.rotary_emb/aten::matmul/MatMul" type="MatMul" version="opset1">
			<data transpose_a="false" transpose_b="false" />
			<input>
				<port id="0" precision="FP32">
					<dim>-1</dim>
					<dim>32</dim>
					<dim>1</dim>
				</port>
				<port id="1" precision="FP32">
					<dim>-1</dim>
					<dim>1</dim>
					<dim>-1</dim>
				</port>
			</input>
			<output>
				<port id="2" precision="FP32" names="296">
					<dim>-1</dim>
					<dim>32</dim>
					<dim>-1</dim>
				</port>
			</output>
		</layer>
		<layer id="66" name="__module.model.rotary_emb/aten::transpose/Constant" type="Const" version="opset1">
			<data element_type="i32" shape="3" offset="67811320" size="12" />
			<output>
				<port id="0" precision="I32">
					<dim>3</dim>
				</port>
			</output>
		</layer>
		<layer id="67" name="__module.model.rotary_emb/aten::transpose/Transpose" type="Transpose" version="opset1">
			<input>
				<port id="0" precision="FP32">
					<dim>-1</dim>
					<dim>32</dim>
					<dim>-1</dim>
				</port>
				<port id="1" precision="I32">
					<dim>3</dim>
				</port>
			</input>
			<output>
				<port id="2" precision="FP32" names="297,freqs">
					<dim>-1</dim>
					<dim>-1</dim>
					<dim>32</dim>
				</port>
			</output>
		</layer>
		<layer id="68" name="__module.model.rotary_emb/aten::cat/Concat" type="Concat" version="opset1">
			<data axis="-1" />
			<input>
				<port id="0" precision="FP32">
					<dim>-1</dim>
					<dim>-1</dim>
					<dim>32</dim>
				</port>
				<port id="1" precision="FP32">
					<dim>-1</dim>
					<dim>-1</dim>
					<dim>32</dim>
				</port>
			</input>
			<output>
				<port id="2" precision="FP32" names="299,emb">
					<dim>-1</dim>
					<dim>-1</dim>
					<dim>64</dim>
				</port>
			</output>
		</layer>
		<layer id="69" name="__module.model.rotary_emb/aten::cos/Cos" type="Cos" version="opset1">
			<input>
				<port id="0" precision="FP32">
					<dim>-1</dim>
					<dim>-1</dim>
					<dim>64</dim>
				</port>
			</input>
			<output>
				<port id="1" precision="FP32" names="300,301,304,307,cos.1,cos.3">
					<dim>-1</dim>
					<dim>-1</dim>
					<dim>64</dim>
				</port>
			</output>
		</layer>
		<layer id="70" name="__module.model.layers.0.self_attn/aten::unsqueeze/Unsqueeze" type="Unsqueeze" version="opset1">
			<input>
				<port id="0" precision="FP32">
					<dim>-1</dim>
					<dim>-1</dim>
					<dim>64</dim>
				</port>
				<port id="1" precision="I64" />
			</input>
			<output>
				<port id="2" precision="FP32" names="1137,1295,1453,1611,1769,1927,2085,2243,2401,2559,2717,2875,3033,3191,3349,347,3507,3665,505,663,821,979,cos,cos.11,cos.13,cos.15,cos.17,cos.19,cos.21,cos.23,cos.25,cos.27,cos.29,cos.31,cos.33,cos.35,cos.37,cos.39,cos.41,cos.43,cos.45,cos.5,cos.7,cos.9">
					<dim>-1</dim>
					<dim>1</dim>
					<dim>-1</dim>
					<dim>64</dim>
				</port>
			</output>
		</layer>
		<layer id="71" name="__module.model.layers.0.self_attn/aten::mul/Multiply" type="Multiply" version="opset1">
			<data auto_broadcast="numpy" />
			<input>
				<port id="0" precision="FP32">
					<dim>-1</dim>
					<dim>32</dim>
					<dim>-1</dim>
					<dim>64</dim>
				</port>
				<port id="1" precision="FP32">
					<dim>-1</dim>
					<dim>1</dim>
					<dim>-1</dim>
					<dim>64</dim>
				</port>
			</input>
			<output>
				<port id="2" precision="FP32" names="349">
					<dim>-1</dim>
					<dim>32</dim>
					<dim>-1</dim>
					<dim>64</dim>
				</port>
			</output>
		</layer>
		<layer id="72" name="Constant_683" type="Const" version="opset1">
			<data element_type="i64" shape="1" offset="67811332" size="8" />
			<output>
				<port id="0" precision="I64">
					<dim>1</dim>
				</port>
			</output>
		</layer>
		<layer id="73" name="Constant_685" type="Const" version="opset1">
			<data element_type="i64" shape="1" offset="67811340" size="8" />
			<output>
				<port id="0" precision="I64">
					<dim>1</dim>
				</port>
			</output>
		</layer>
		<layer id="74" name="Constant_687" type="Const" version="opset1">
			<data element_type="i64" shape="1" offset="67811312" size="8" />
			<output>
				<port id="0" precision="I64">
					<dim>1</dim>
				</port>
			</output>
		</layer>
		<layer id="75" name="Constant_639" type="Const" version="opset1">
			<data element_type="i64" shape="1" offset="67811348" size="8" />
			<output>
				<port id="0" precision="I64">
					<dim>1</dim>
				</port>
			</output>
		</layer>
		<layer id="76" name="__module.model.layers.0.self_attn/aten::slice/Slice" type="Slice" version="opset8">
			<input>
				<port id="0" precision="FP32">
					<dim>-1</dim>
					<dim>32</dim>
					<dim>-1</dim>
					<dim>64</dim>
				</port>
				<port id="1" precision="I64">
					<dim>1</dim>
				</port>
				<port id="2" precision="I64">
					<dim>1</dim>
				</port>
				<port id="3" precision="I64">
					<dim>1</dim>
				</port>
				<port id="4" precision="I64">
					<dim>1</dim>
				</port>
			</input>
			<output>
				<port id="5" precision="FP32" names="359,x2.1">
					<dim>-1</dim>
					<dim>32</dim>
					<dim>-1</dim>
					<dim>32</dim>
				</port>
			</output>
		</layer>
		<layer id="77" name="__module.model.layers.0.self_attn/aten::neg/Constant" type="Const" version="opset1">
			<data element_type="i32" shape="" offset="67811356" size="4" />
			<output>
				<port id="0" precision="I32" />
			</output>
		</layer>
		<layer id="78" name="__module.model.layers.0.self_attn/aten::neg/ConvertLike" type="Convert" version="opset1">
			<data destination_type="f32" />
			<input>
				<port id="0" precision="I32" />
			</input>
			<output>
				<port id="1" precision="FP32" />
			</output>
		</layer>
		<layer id="79" name="__module.model.layers.0.self_attn/aten::neg/Multiply" type="Multiply" version="opset1">
			<data auto_broadcast="numpy" />
			<input>
				<port id="0" precision="FP32">
					<dim>-1</dim>
					<dim>32</dim>
					<dim>-1</dim>
					<dim>32</dim>
				</port>
				<port id="1" precision="FP32" />
			</input>
			<output>
				<port id="2" precision="FP32" names="360">
					<dim>-1</dim>
					<dim>32</dim>
					<dim>-1</dim>
					<dim>32</dim>
				</port>
			</output>
		</layer>
		<layer id="80" name="Constant_580" type="Const" version="opset1">
			<data element_type="i64" shape="1" offset="4" size="8" />
			<output>
				<port id="0" precision="I64">
					<dim>1</dim>
				</port>
			</output>
		</layer>
		<layer id="81" name="Constant_624" type="Const" version="opset1">
			<data element_type="i64" shape="1" offset="67811332" size="8" />
			<output>
				<port id="0" precision="I64">
					<dim>1</dim>
				</port>
			</output>
		</layer>
		<layer id="82" name="Constant_626" type="Const" version="opset1">
			<data element_type="i64" shape="1" offset="67811312" size="8" />
			<output>
				<port id="0" precision="I64">
					<dim>1</dim>
				</port>
			</output>
		</layer>
		<layer id="83" name="Constant_578" type="Const" version="opset1">
			<data element_type="i64" shape="1" offset="67811348" size="8" />
			<output>
				<port id="0" precision="I64">
					<dim>1</dim>
				</port>
			</output>
		</layer>
		<layer id="84" name="__module.model.layers.0.self_attn/aten::slice/Slice_1" type="Slice" version="opset8">
			<input>
				<port id="0" precision="FP32">
					<dim>-1</dim>
					<dim>32</dim>
					<dim>-1</dim>
					<dim>64</dim>
				</port>
				<port id="1" precision="I64">
					<dim>1</dim>
				</port>
				<port id="2" precision="I64">
					<dim>1</dim>
				</port>
				<port id="3" precision="I64">
					<dim>1</dim>
				</port>
				<port id="4" precision="I64">
					<dim>1</dim>
				</port>
			</input>
			<output>
				<port id="5" precision="FP32" names="354,x1.1">
					<dim>-1</dim>
					<dim>32</dim>
					<dim>-1</dim>
					<dim>32</dim>
				</port>
			</output>
		</layer>
		<layer id="85" name="__module.model.layers.0.self_attn/aten::cat/Concat" type="Concat" version="opset1">
			<data axis="-1" />
			<input>
				<port id="0" precision="FP32">
					<dim>-1</dim>
					<dim>32</dim>
					<dim>-1</dim>
					<dim>32</dim>
				</port>
				<port id="1" precision="FP32">
					<dim>-1</dim>
					<dim>32</dim>
					<dim>-1</dim>
					<dim>32</dim>
				</port>
			</input>
			<output>
				<port id="2" precision="FP32" names="362">
					<dim>-1</dim>
					<dim>32</dim>
					<dim>-1</dim>
					<dim>64</dim>
				</port>
			</output>
		</layer>
		<layer id="86" name="__module.model.rotary_emb/aten::sin/Sin" type="Sin" version="opset1">
			<input>
				<port id="0" precision="FP32">
					<dim>-1</dim>
					<dim>-1</dim>
					<dim>64</dim>
				</port>
			</input>
			<output>
				<port id="1" precision="FP32" names="302,303,305,308,sin.1,sin.3">
					<dim>-1</dim>
					<dim>-1</dim>
					<dim>64</dim>
				</port>
			</output>
		</layer>
		<layer id="87" name="__module.model.layers.0.self_attn/aten::unsqueeze/Unsqueeze_1" type="Unsqueeze" version="opset1">
			<input>
				<port id="0" precision="FP32">
					<dim>-1</dim>
					<dim>-1</dim>
					<dim>64</dim>
				</port>
				<port id="1" precision="I64" />
			</input>
			<output>
				<port id="2" precision="FP32" names="1138,1296,1454,1612,1770,1928,2086,2244,2402,2560,2718,2876,3034,3192,3350,348,3508,3666,506,664,822,980,sin,sin.11,sin.13,sin.15,sin.17,sin.19,sin.21,sin.23,sin.25,sin.27,sin.29,sin.31,sin.33,sin.35,sin.37,sin.39,sin.41,sin.43,sin.45,sin.5,sin.7,sin.9">
					<dim>-1</dim>
					<dim>1</dim>
					<dim>-1</dim>
					<dim>64</dim>
				</port>
			</output>
		</layer>
		<layer id="88" name="__module.model.layers.0.self_attn/aten::mul/Multiply_1" type="Multiply" version="opset1">
			<data auto_broadcast="numpy" />
			<input>
				<port id="0" precision="FP32">
					<dim>-1</dim>
					<dim>32</dim>
					<dim>-1</dim>
					<dim>64</dim>
				</port>
				<port id="1" precision="FP32">
					<dim>-1</dim>
					<dim>1</dim>
					<dim>-1</dim>
					<dim>64</dim>
				</port>
			</input>
			<output>
				<port id="2" precision="FP32" names="363">
					<dim>-1</dim>
					<dim>32</dim>
					<dim>-1</dim>
					<dim>64</dim>
				</port>
			</output>
		</layer>
		<layer id="89" name="__module.model.layers.0.self_attn/aten::add/Add" type="Add" version="opset1">
			<data auto_broadcast="numpy" />
			<input>
				<port id="0" precision="FP32">
					<dim>-1</dim>
					<dim>32</dim>
					<dim>-1</dim>
					<dim>64</dim>
				</port>
				<port id="1" precision="FP32">
					<dim>-1</dim>
					<dim>32</dim>
					<dim>-1</dim>
					<dim>64</dim>
				</port>
			</input>
			<output>
				<port id="2" precision="FP32" names="364,query.1">
					<dim>-1</dim>
					<dim>32</dim>
					<dim>-1</dim>
					<dim>64</dim>
				</port>
			</output>
		</layer>
		<layer id="90" name="Constant_65990" type="Const" version="opset1">
			<data element_type="f32" shape="" offset="0" size="4" />
			<output>
				<port id="0" precision="FP32" />
			</output>
		</layer>
		<layer id="91" name="Constant_65983" type="Const" version="opset1">
			<data element_type="i64" shape="1" offset="12" size="8" />
			<output>
				<port id="0" precision="I64">
					<dim>1</dim>
				</port>
			</output>
		</layer>
		<layer id="92" name="Constant_65985" type="Const" version="opset1">
			<data element_type="i64" shape="1" offset="4" size="8" />
			<output>
				<port id="0" precision="I64">
					<dim>1</dim>
				</port>
			</output>
		</layer>
		<layer id="93" name="Constant_65987" type="Const" version="opset1">
			<data element_type="i64" shape="1" offset="20" size="8" />
			<output>
				<port id="0" precision="I64">
					<dim>1</dim>
				</port>
			</output>
		</layer>
		<layer id="94" name="Concat_65988" type="Concat" version="opset1">
			<data axis="0" />
			<input>
				<port id="0" precision="I64">
					<dim>1</dim>
				</port>
				<port id="1" precision="I64">
					<dim>1</dim>
				</port>
				<port id="2" precision="I64">
					<dim>1</dim>
				</port>
				<port id="3" precision="I64">
					<dim>1</dim>
				</port>
			</input>
			<output>
				<port id="4" precision="I64">
					<dim>4</dim>
				</port>
			</output>
		</layer>
		<layer id="95" name="Broadcast_65991" type="Broadcast" version="opset3">
			<data mode="numpy" />
			<input>
				<port id="0" precision="FP32" />
				<port id="1" precision="I64">
					<dim>4</dim>
				</port>
			</input>
			<output>
				<port id="2" precision="FP32">
					<dim>-1</dim>
					<dim>4</dim>
					<dim>0</dim>
					<dim>64</dim>
				</port>
			</output>
		</layer>
		<layer id="96" name="ReadValue_65490" type="ReadValue" version="opset6">
			<data variable_id="past_key_values.0.keypresent.0.key" variable_type="f32" variable_shape="?,4,?,64" />
			<input>
				<port id="0" precision="FP32">
					<dim>-1</dim>
					<dim>4</dim>
					<dim>0</dim>
					<dim>64</dim>
				</port>
			</input>
			<output>
				<port id="1" precision="FP32" names="past_key_values.0.key">
					<dim>-1</dim>
					<dim>4</dim>
					<dim>-1</dim>
					<dim>64</dim>
				</port>
			</output>
		</layer>
		<layer id="97" name="Constant_64973" type="Const" version="opset1">
			<data element_type="i64" shape="" offset="4" size="8" />
			<output>
				<port id="0" precision="I64" />
			</output>
		</layer>
		<layer id="98" name="Gather_64974" type="Gather" version="opset8">
			<data batch_dims="0" />
			<input>
				<port id="0" precision="FP32">
					<dim>-1</dim>
					<dim>4</dim>
					<dim>-1</dim>
					<dim>64</dim>
				</port>
				<port id="1" precision="I32">
					<dim>-1</dim>
				</port>
				<port id="2" precision="I64" />
			</input>
			<output>
				<port id="3" precision="FP32">
					<dim>-1</dim>
					<dim>4</dim>
					<dim>-1</dim>
					<dim>64</dim>
				</port>
			</output>
		</layer>
		<layer id="99" name="self.model.layers.0.self_attn.k_proj.weight" type="Const" version="opset1">
			<data element_type="i4" shape="256, 16, 128" offset="67811360" size="262144" />
			<output>
				<port id="0" precision="I4">
					<dim>256</dim>
					<dim>16</dim>
					<dim>128</dim>
				</port>
			</output>
		</layer>
		<layer id="100" name="Convert_614402" type="Convert" version="opset1">
			<data destination_type="f16" />
			<input>
				<port id="0" precision="I4">
					<dim>256</dim>
					<dim>16</dim>
					<dim>128</dim>
				</port>
			</input>
			<output>
				<port id="1" precision="FP16">
					<dim>256</dim>
					<dim>16</dim>
					<dim>128</dim>
				</port>
			</output>
		</layer>
		<layer id="101" name="self.model.layers.0.self_attn.k_proj.weight/scale" type="Const" version="opset1">
			<data element_type="f16" shape="256, 16, 1" offset="68073504" size="8192" />
			<output>
				<port id="0" precision="FP16">
					<dim>256</dim>
					<dim>16</dim>
					<dim>1</dim>
				</port>
			</output>
		</layer>
		<layer id="102" name="self.model.layers.0.self_attn.k_proj.weight/fq_weights_1" type="Multiply" version="opset1">
			<data auto_broadcast="numpy" />
			<input>
				<port id="0" precision="FP16">
					<dim>256</dim>
					<dim>16</dim>
					<dim>128</dim>
				</port>
				<port id="1" precision="FP16">
					<dim>256</dim>
					<dim>16</dim>
					<dim>1</dim>
				</port>
			</input>
			<output>
				<port id="2" precision="FP16">
					<dim>256</dim>
					<dim>16</dim>
					<dim>128</dim>
				</port>
			</output>
		</layer>
		<layer id="103" name="Constant_614406" type="Const" version="opset1">
			<data element_type="i64" shape="2" offset="68081696" size="16" />
			<output>
				<port id="0" precision="I64">
					<dim>2</dim>
				</port>
			</output>
		</layer>
		<layer id="104" name="Reshape_614407" type="Reshape" version="opset1">
			<data special_zero="false" />
			<input>
				<port id="0" precision="FP16">
					<dim>256</dim>
					<dim>16</dim>
					<dim>128</dim>
				</port>
				<port id="1" precision="I64">
					<dim>2</dim>
				</port>
			</input>
			<output>
				<port id="2" precision="FP16">
					<dim>256</dim>
					<dim>2048</dim>
				</port>
			</output>
		</layer>
		<layer id="105" name="__module.model.layers.0.self_attn.k_proj/ov_ext::linear/Convert" type="Convert" version="opset1">
			<data destination_type="f32" />
			<rt_info>
				<attribute name="decompression" version="0" />
			</rt_info>
			<input>
				<port id="0" precision="FP16">
					<dim>256</dim>
					<dim>2048</dim>
				</port>
			</input>
			<output>
				<port id="1" precision="FP32">
					<dim>256</dim>
					<dim>2048</dim>
				</port>
			</output>
		</layer>
		<layer id="106" name="__module.model.layers.0.self_attn.k_proj/ov_ext::linear/MatMul" type="MatMul" version="opset1">
			<data transpose_a="false" transpose_b="true" />
			<input>
				<port id="0" precision="FP32">
					<dim>-1</dim>
					<dim>-1</dim>
					<dim>2048</dim>
				</port>
				<port id="1" precision="FP32">
					<dim>256</dim>
					<dim>2048</dim>
				</port>
			</input>
			<output>
				<port id="2" precision="FP32" names="338">
					<dim>-1</dim>
					<dim>-1</dim>
					<dim>256</dim>
				</port>
			</output>
		</layer>
		<layer id="107" name="Constant_63457" type="Const" version="opset1">
			<data element_type="i64" shape="4" offset="68081712" size="32" />
			<output>
				<port id="0" precision="I64">
					<dim>4</dim>
				</port>
			</output>
		</layer>
		<layer id="108" name="__module.model.layers.0.self_attn/aten::view/Reshape_1" type="Reshape" version="opset1">
			<data special_zero="true" />
			<input>
				<port id="0" precision="FP32">
					<dim>-1</dim>
					<dim>-1</dim>
					<dim>256</dim>
				</port>
				<port id="1" precision="I64">
					<dim>4</dim>
				</port>
			</input>
			<output>
				<port id="2" precision="FP32" names="340">
					<dim>-1</dim>
					<dim>-1</dim>
					<dim>4</dim>
					<dim>64</dim>
				</port>
			</output>
		</layer>
		<layer id="109" name="__module.model.layers.0.self_attn/aten::transpose/Constant_1" type="Const" version="opset1">
			<data element_type="i32" shape="4" offset="67811168" size="16" />
			<output>
				<port id="0" precision="I32">
					<dim>4</dim>
				</port>
			</output>
		</layer>
		<layer id="110" name="__module.model.layers.0.self_attn/aten::transpose/Transpose_1" type="Transpose" version="opset1">
			<input>
				<port id="0" precision="FP32">
					<dim>-1</dim>
					<dim>-1</dim>
					<dim>4</dim>
					<dim>64</dim>
				</port>
				<port id="1" precision="I32">
					<dim>4</dim>
				</port>
			</input>
			<output>
				<port id="2" precision="FP32" names="341,k.1">
					<dim>-1</dim>
					<dim>4</dim>
					<dim>-1</dim>
					<dim>64</dim>
				</port>
			</output>
		</layer>
		<layer id="111" name="__module.model.layers.0.self_attn/aten::mul/Multiply_2" type="Multiply" version="opset1">
			<data auto_broadcast="numpy" />
			<input>
				<port id="0" precision="FP32">
					<dim>-1</dim>
					<dim>4</dim>
					<dim>-1</dim>
					<dim>64</dim>
				</port>
				<port id="1" precision="FP32">
					<dim>-1</dim>
					<dim>1</dim>
					<dim>-1</dim>
					<dim>64</dim>
				</port>
			</input>
			<output>
				<port id="2" precision="FP32" names="365">
					<dim>-1</dim>
					<dim>4</dim>
					<dim>-1</dim>
					<dim>64</dim>
				</port>
			</output>
		</layer>
		<layer id="112" name="Constant_826" type="Const" version="opset1">
			<data element_type="i64" shape="1" offset="67811332" size="8" />
			<output>
				<port id="0" precision="I64">
					<dim>1</dim>
				</port>
			</output>
		</layer>
		<layer id="113" name="Constant_828" type="Const" version="opset1">
			<data element_type="i64" shape="1" offset="67811340" size="8" />
			<output>
				<port id="0" precision="I64">
					<dim>1</dim>
				</port>
			</output>
		</layer>
		<layer id="114" name="Constant_830" type="Const" version="opset1">
			<data element_type="i64" shape="1" offset="67811312" size="8" />
			<output>
				<port id="0" precision="I64">
					<dim>1</dim>
				</port>
			</output>
		</layer>
		<layer id="115" name="Constant_782" type="Const" version="opset1">
			<data element_type="i64" shape="1" offset="67811348" size="8" />
			<output>
				<port id="0" precision="I64">
					<dim>1</dim>
				</port>
			</output>
		</layer>
		<layer id="116" name="__module.model.layers.0.self_attn/aten::slice/Slice_2" type="Slice" version="opset8">
			<input>
				<port id="0" precision="FP32">
					<dim>-1</dim>
					<dim>4</dim>
					<dim>-1</dim>
					<dim>64</dim>
				</port>
				<port id="1" precision="I64">
					<dim>1</dim>
				</port>
				<port id="2" precision="I64">
					<dim>1</dim>
				</port>
				<port id="3" precision="I64">
					<dim>1</dim>
				</port>
				<port id="4" precision="I64">
					<dim>1</dim>
				</port>
			</input>
			<output>
				<port id="5" precision="FP32" names="375,x2.3">
					<dim>-1</dim>
					<dim>4</dim>
					<dim>-1</dim>
					<dim>32</dim>
				</port>
			</output>
		</layer>
		<layer id="117" name="__module.model.layers.0.self_attn/aten::neg/Constant_1" type="Const" version="opset1">
			<data element_type="i32" shape="" offset="67811356" size="4" />
			<output>
				<port id="0" precision="I32" />
			</output>
		</layer>
		<layer id="118" name="__module.model.layers.0.self_attn/aten::neg/ConvertLike_1" type="Convert" version="opset1">
			<data destination_type="f32" />
			<input>
				<port id="0" precision="I32" />
			</input>
			<output>
				<port id="1" precision="FP32" />
			</output>
		</layer>
		<layer id="119" name="__module.model.layers.0.self_attn/aten::neg/Multiply_1" type="Multiply" version="opset1">
			<data auto_broadcast="numpy" />
			<input>
				<port id="0" precision="FP32">
					<dim>-1</dim>
					<dim>4</dim>
					<dim>-1</dim>
					<dim>32</dim>
				</port>
				<port id="1" precision="FP32" />
			</input>
			<output>
				<port id="2" precision="FP32" names="376">
					<dim>-1</dim>
					<dim>4</dim>
					<dim>-1</dim>
					<dim>32</dim>
				</port>
			</output>
		</layer>
		<layer id="120" name="Constant_723" type="Const" version="opset1">
			<data element_type="i64" shape="1" offset="4" size="8" />
			<output>
				<port id="0" precision="I64">
					<dim>1</dim>
				</port>
			</output>
		</layer>
		<layer id="121" name="Constant_767" type="Const" version="opset1">
			<data element_type="i64" shape="1" offset="67811332" size="8" />
			<output>
				<port id="0" precision="I64">
					<dim>1</dim>
				</port>
			</output>
		</layer>
		<layer id="122" name="Constant_769" type="Const" version="opset1">
			<data element_type="i64" shape="1" offset="67811312" size="8" />
			<output>
				<port id="0" precision="I64">
					<dim>1</dim>
				</port>
			</output>
		</layer>
		<layer id="123" name="Constant_721" type="Const" version="opset1">
			<data element_type="i64" shape="1" offset="67811348" size="8" />
			<output>
				<port id="0" precision="I64">
					<dim>1</dim>
				</port>
			</output>
		</layer>
		<layer id="124" name="__module.model.layers.0.self_attn/aten::slice/Slice_3" type="Slice" version="opset8">
			<input>
				<port id="0" precision="FP32">
					<dim>-1</dim>
					<dim>4</dim>
					<dim>-1</dim>
					<dim>64</dim>
				</port>
				<port id="1" precision="I64">
					<dim>1</dim>
				</port>
				<port id="2" precision="I64">
					<dim>1</dim>
				</port>
				<port id="3" precision="I64">
					<dim>1</dim>
				</port>
				<port id="4" precision="I64">
					<dim>1</dim>
				</port>
			</input>
			<output>
				<port id="5" precision="FP32" names="370,x1.3">
					<dim>-1</dim>
					<dim>4</dim>
					<dim>-1</dim>
					<dim>32</dim>
				</port>
			</output>
		</layer>
		<layer id="125" name="__module.model.layers.0.self_attn/aten::cat/Concat_1" type="Concat" version="opset1">
			<data axis="-1" />
			<input>
				<port id="0" precision="FP32">
					<dim>-1</dim>
					<dim>4</dim>
					<dim>-1</dim>
					<dim>32</dim>
				</port>
				<port id="1" precision="FP32">
					<dim>-1</dim>
					<dim>4</dim>
					<dim>-1</dim>
					<dim>32</dim>
				</port>
			</input>
			<output>
				<port id="2" precision="FP32" names="378">
					<dim>-1</dim>
					<dim>4</dim>
					<dim>-1</dim>
					<dim>64</dim>
				</port>
			</output>
		</layer>
		<layer id="126" name="__module.model.layers.0.self_attn/aten::mul/Multiply_3" type="Multiply" version="opset1">
			<data auto_broadcast="numpy" />
			<input>
				<port id="0" precision="FP32">
					<dim>-1</dim>
					<dim>4</dim>
					<dim>-1</dim>
					<dim>64</dim>
				</port>
				<port id="1" precision="FP32">
					<dim>-1</dim>
					<dim>1</dim>
					<dim>-1</dim>
					<dim>64</dim>
				</port>
			</input>
			<output>
				<port id="2" precision="FP32" names="379">
					<dim>-1</dim>
					<dim>4</dim>
					<dim>-1</dim>
					<dim>64</dim>
				</port>
			</output>
		</layer>
		<layer id="127" name="__module.model.layers.0.self_attn/aten::add/Add_1" type="Add" version="opset1">
			<data auto_broadcast="numpy" />
			<input>
				<port id="0" precision="FP32">
					<dim>-1</dim>
					<dim>4</dim>
					<dim>-1</dim>
					<dim>64</dim>
				</port>
				<port id="1" precision="FP32">
					<dim>-1</dim>
					<dim>4</dim>
					<dim>-1</dim>
					<dim>64</dim>
				</port>
			</input>
			<output>
				<port id="2" precision="FP32" names="380,key_states.1">
					<dim>-1</dim>
					<dim>4</dim>
					<dim>-1</dim>
					<dim>64</dim>
				</port>
			</output>
		</layer>
		<layer id="128" name="__module.model.layers.0.self_attn/aten::cat/Concat_2" type="Concat" version="opset1">
			<data axis="-2" />
			<input>
				<port id="0" precision="FP32">
					<dim>-1</dim>
					<dim>4</dim>
					<dim>-1</dim>
					<dim>64</dim>
				</port>
				<port id="1" precision="FP32">
					<dim>-1</dim>
					<dim>4</dim>
					<dim>-1</dim>
					<dim>64</dim>
				</port>
			</input>
			<output>
				<port id="2" precision="FP32" names="390,391,hidden_states.9">
					<dim>-1</dim>
					<dim>4</dim>
					<dim>-1</dim>
					<dim>64</dim>
				</port>
			</output>
		</layer>
		<layer id="129" name="183" type="Const" version="opset1">
			<data element_type="i64" shape="" offset="68081744" size="8" />
			<output>
				<port id="0" precision="I64" names="183" />
			</output>
		</layer>
		<layer id="130" name="__module.model.layers.0.self_attn/aten::unsqueeze/Unsqueeze_2" type="Unsqueeze" version="opset1">
			<input>
				<port id="0" precision="FP32">
					<dim>-1</dim>
					<dim>4</dim>
					<dim>-1</dim>
					<dim>64</dim>
				</port>
				<port id="1" precision="I64" />
			</input>
			<output>
				<port id="2" precision="FP32" names="392,393,394">
					<dim>-1</dim>
					<dim>4</dim>
					<dim>1</dim>
					<dim>-1</dim>
					<dim>64</dim>
				</port>
			</output>
		</layer>
		<layer id="131" name="__module.model.layers.0.self_attn/aten::size/ShapeOf_2" type="ShapeOf" version="opset3">
			<data output_type="i64" />
			<input>
				<port id="0" precision="FP32">
					<dim>-1</dim>
					<dim>4</dim>
					<dim>-1</dim>
					<dim>64</dim>
				</port>
			</input>
			<output>
				<port id="1" precision="I64">
					<dim>4</dim>
				</port>
			</output>
		</layer>
		<layer id="132" name="Constant_51769" type="Const" version="opset1">
			<data element_type="i64" shape="2" offset="68081752" size="16" />
			<output>
				<port id="0" precision="I64">
					<dim>2</dim>
				</port>
			</output>
		</layer>
		<layer id="133" name="Constant_51770" type="Const" version="opset1">
			<data element_type="i64" shape="" offset="4" size="8" />
			<output>
				<port id="0" precision="I64" />
			</output>
		</layer>
		<layer id="134" name="Gather_51771" type="Gather" version="opset8">
			<data batch_dims="0" />
			<input>
				<port id="0" precision="I64">
					<dim>4</dim>
				</port>
				<port id="1" precision="I64">
					<dim>2</dim>
				</port>
				<port id="2" precision="I64" />
			</input>
			<output>
				<port id="3" precision="I64">
					<dim>2</dim>
				</port>
			</output>
		</layer>
		<layer id="135" name="Constant_49945" type="Const" version="opset1">
			<data element_type="i64" shape="1" offset="68081768" size="8" />
			<output>
				<port id="0" precision="I64">
					<dim>1</dim>
				</port>
			</output>
		</layer>
		<layer id="136" name="ShapeOf_58183" type="ShapeOf" version="opset3">
			<data output_type="i64" />
			<input>
				<port id="0" precision="FP32">
					<dim>-1</dim>
					<dim>4</dim>
					<dim>-1</dim>
					<dim>64</dim>
				</port>
			</input>
			<output>
				<port id="1" precision="I64">
					<dim>4</dim>
				</port>
			</output>
		</layer>
		<layer id="137" name="Constant_58184" type="Const" version="opset1">
			<data element_type="i64" shape="" offset="68081744" size="8" />
			<output>
				<port id="0" precision="I64" />
			</output>
		</layer>
		<layer id="138" name="Constant_58185" type="Const" version="opset1">
			<data element_type="i64" shape="" offset="4" size="8" />
			<output>
				<port id="0" precision="I64" />
			</output>
		</layer>
		<layer id="139" name="Gather_58186" type="Gather" version="opset8">
			<data batch_dims="0" />
			<input>
				<port id="0" precision="I64">
					<dim>4</dim>
				</port>
				<port id="1" precision="I64" />
				<port id="2" precision="I64" />
			</input>
			<output>
				<port id="3" precision="I64" names="233,243" />
			</output>
		</layer>
		<layer id="140" name="Constant_58204" type="Const" version="opset1">
			<data element_type="i64" shape="1" offset="67811312" size="8" />
			<output>
				<port id="0" precision="I64">
					<dim>1</dim>
				</port>
			</output>
		</layer>
		<layer id="141" name="Reshape_58205" type="Reshape" version="opset1">
			<data special_zero="false" />
			<input>
				<port id="0" precision="I64" />
				<port id="1" precision="I64">
					<dim>1</dim>
				</port>
			</input>
			<output>
				<port id="2" precision="I64">
					<dim>1</dim>
				</port>
			</output>
		</layer>
		<layer id="142" name="Constant_58192" type="Const" version="opset1">
			<data element_type="i64" shape="" offset="67811312" size="8" />
			<output>
				<port id="0" precision="I64" />
			</output>
		</layer>
		<layer id="143" name="Constant_58193" type="Const" version="opset1">
			<data element_type="i64" shape="" offset="4" size="8" />
			<output>
				<port id="0" precision="I64" />
			</output>
		</layer>
		<layer id="144" name="Gather_58194" type="Gather" version="opset8">
			<data batch_dims="0" />
			<input>
				<port id="0" precision="I64">
					<dim>3</dim>
				</port>
				<port id="1" precision="I64" />
				<port id="2" precision="I64" />
			</input>
			<output>
				<port id="3" precision="I64" names="235" />
			</output>
		</layer>
		<layer id="145" name="Constant_58206" type="Const" version="opset1">
			<data element_type="i64" shape="1" offset="67811312" size="8" />
			<output>
				<port id="0" precision="I64">
					<dim>1</dim>
				</port>
			</output>
		</layer>
		<layer id="146" name="Reshape_58207" type="Reshape" version="opset1">
			<data special_zero="false" />
			<input>
				<port id="0" precision="I64" />
				<port id="1" precision="I64">
					<dim>1</dim>
				</port>
			</input>
			<output>
				<port id="2" precision="I64">
					<dim>1</dim>
				</port>
			</output>
		</layer>
		<layer id="147" name="Add_58208" type="Add" version="opset1">
			<data auto_broadcast="numpy" />
			<input>
				<port id="0" precision="I64">
					<dim>1</dim>
				</port>
				<port id="1" precision="I64">
					<dim>1</dim>
				</port>
			</input>
			<output>
				<port id="2" precision="I64" names="1020,1049,1178,1207,1336,1365,1494,1523,1652,1681,1810,1839,1968,1997,2126,2155,2284,2313,2442,2471,2600,2629,2758,2787,2916,2945,3074,3103,3232,3261,3390,3419,3548,3577,3706,3735,388,417,546,575,704,733,862,891">
					<dim>1</dim>
				</port>
			</output>
		</layer>
		<layer id="148" name="Constant_49948" type="Const" version="opset1">
			<data element_type="i64" shape="1" offset="20" size="8" />
			<output>
				<port id="0" precision="I64">
					<dim>1</dim>
				</port>
			</output>
		</layer>
		<layer id="149" name="__module.model.layers.0.self_attn/prim::ListConstruct_2" type="Concat" version="opset1">
			<data axis="0" />
			<input>
				<port id="0" precision="I64">
					<dim>2</dim>
				</port>
				<port id="1" precision="I64">
					<dim>1</dim>
				</port>
				<port id="2" precision="I64">
					<dim>1</dim>
				</port>
				<port id="3" precision="I64">
					<dim>1</dim>
				</port>
			</input>
			<output>
				<port id="4" precision="I64">
					<dim>5</dim>
				</port>
			</output>
		</layer>
		<layer id="150" name="__module.model.layers.0.self_attn/aten::expand/Broadcast" type="Broadcast" version="opset3">
			<data mode="bidirectional" />
			<input>
				<port id="0" precision="FP32">
					<dim>-1</dim>
					<dim>4</dim>
					<dim>1</dim>
					<dim>-1</dim>
					<dim>64</dim>
				</port>
				<port id="1" precision="I64">
					<dim>5</dim>
				</port>
			</input>
			<output>
				<port id="2" precision="FP32" names="396,hidden_states.11">
					<dim>-1</dim>
					<dim>4</dim>
					<dim>8</dim>
					<dim>-1</dim>
					<dim>64</dim>
				</port>
			</output>
		</layer>
		<layer id="151" name="Constant_63458" type="Const" version="opset1">
			<data element_type="i64" shape="4" offset="68081776" size="32" />
			<output>
				<port id="0" precision="I64">
					<dim>4</dim>
				</port>
			</output>
		</layer>
		<layer id="152" name="__module.model.layers.0.self_attn/aten::reshape/Reshape" type="Reshape" version="opset1">
			<data special_zero="true" />
			<input>
				<port id="0" precision="FP32">
					<dim>-1</dim>
					<dim>4</dim>
					<dim>8</dim>
					<dim>-1</dim>
					<dim>64</dim>
				</port>
				<port id="1" precision="I64">
					<dim>4</dim>
				</port>
			</input>
			<output>
				<port id="2" precision="FP32" names="400,key.1">
					<dim>-1</dim>
					<dim>32</dim>
					<dim>-1</dim>
					<dim>64</dim>
				</port>
			</output>
		</layer>
		<layer id="153" name="Constant_66002" type="Const" version="opset1">
			<data element_type="f32" shape="" offset="0" size="4" />
			<output>
				<port id="0" precision="FP32" />
			</output>
		</layer>
		<layer id="154" name="Constant_65995" type="Const" version="opset1">
			<data element_type="i64" shape="1" offset="12" size="8" />
			<output>
				<port id="0" precision="I64">
					<dim>1</dim>
				</port>
			</output>
		</layer>
		<layer id="155" name="Constant_65997" type="Const" version="opset1">
			<data element_type="i64" shape="1" offset="4" size="8" />
			<output>
				<port id="0" precision="I64">
					<dim>1</dim>
				</port>
			</output>
		</layer>
		<layer id="156" name="Constant_65999" type="Const" version="opset1">
			<data element_type="i64" shape="1" offset="20" size="8" />
			<output>
				<port id="0" precision="I64">
					<dim>1</dim>
				</port>
			</output>
		</layer>
		<layer id="157" name="Concat_66000" type="Concat" version="opset1">
			<data axis="0" />
			<input>
				<port id="0" precision="I64">
					<dim>1</dim>
				</port>
				<port id="1" precision="I64">
					<dim>1</dim>
				</port>
				<port id="2" precision="I64">
					<dim>1</dim>
				</port>
				<port id="3" precision="I64">
					<dim>1</dim>
				</port>
			</input>
			<output>
				<port id="4" precision="I64">
					<dim>4</dim>
				</port>
			</output>
		</layer>
		<layer id="158" name="Broadcast_66003" type="Broadcast" version="opset3">
			<data mode="numpy" />
			<input>
				<port id="0" precision="FP32" />
				<port id="1" precision="I64">
					<dim>4</dim>
				</port>
			</input>
			<output>
				<port id="2" precision="FP32">
					<dim>-1</dim>
					<dim>4</dim>
					<dim>0</dim>
					<dim>64</dim>
				</port>
			</output>
		</layer>
		<layer id="159" name="ReadValue_65492" type="ReadValue" version="opset6">
			<data variable_id="past_key_values.0.valuepresent.0.value" variable_type="f32" variable_shape="?,4,?,64" />
			<input>
				<port id="0" precision="FP32">
					<dim>-1</dim>
					<dim>4</dim>
					<dim>0</dim>
					<dim>64</dim>
				</port>
			</input>
			<output>
				<port id="1" precision="FP32" names="past_key_values.0.value">
					<dim>-1</dim>
					<dim>4</dim>
					<dim>-1</dim>
					<dim>64</dim>
				</port>
			</output>
		</layer>
		<layer id="160" name="Constant_64976" type="Const" version="opset1">
			<data element_type="i64" shape="" offset="4" size="8" />
			<output>
				<port id="0" precision="I64" />
			</output>
		</layer>
		<layer id="161" name="Gather_64977" type="Gather" version="opset8">
			<data batch_dims="0" />
			<input>
				<port id="0" precision="FP32">
					<dim>-1</dim>
					<dim>4</dim>
					<dim>-1</dim>
					<dim>64</dim>
				</port>
				<port id="1" precision="I32">
					<dim>-1</dim>
				</port>
				<port id="2" precision="I64" />
			</input>
			<output>
				<port id="3" precision="FP32">
					<dim>-1</dim>
					<dim>4</dim>
					<dim>-1</dim>
					<dim>64</dim>
				</port>
			</output>
		</layer>
		<layer id="162" name="self.model.layers.0.self_attn.v_proj.weight" type="Const" version="opset1">
			<data element_type="i4" shape="256, 16, 128" offset="68081808" size="262144" />
			<output>
				<port id="0" precision="I4">
					<dim>256</dim>
					<dim>16</dim>
					<dim>128</dim>
				</port>
			</output>
		</layer>
		<layer id="163" name="Convert_619148" type="Convert" version="opset1">
			<data destination_type="f16" />
			<input>
				<port id="0" precision="I4">
					<dim>256</dim>
					<dim>16</dim>
					<dim>128</dim>
				</port>
			</input>
			<output>
				<port id="1" precision="FP16">
					<dim>256</dim>
					<dim>16</dim>
					<dim>128</dim>
				</port>
			</output>
		</layer>
		<layer id="164" name="self.model.layers.0.self_attn.v_proj.weight/scale" type="Const" version="opset1">
			<data element_type="f16" shape="256, 16, 1" offset="68343952" size="8192" />
			<output>
				<port id="0" precision="FP16">
					<dim>256</dim>
					<dim>16</dim>
					<dim>1</dim>
				</port>
			</output>
		</layer>
		<layer id="165" name="self.model.layers.0.self_attn.v_proj.weight/fq_weights_1" type="Multiply" version="opset1">
			<data auto_broadcast="numpy" />
			<input>
				<port id="0" precision="FP16">
					<dim>256</dim>
					<dim>16</dim>
					<dim>128</dim>
				</port>
				<port id="1" precision="FP16">
					<dim>256</dim>
					<dim>16</dim>
					<dim>1</dim>
				</port>
			</input>
			<output>
				<port id="2" precision="FP16">
					<dim>256</dim>
					<dim>16</dim>
					<dim>128</dim>
				</port>
			</output>
		</layer>
		<layer id="166" name="Constant_619152" type="Const" version="opset1">
			<data element_type="i64" shape="2" offset="68081696" size="16" />
			<output>
				<port id="0" precision="I64">
					<dim>2</dim>
				</port>
			</output>
		</layer>
		<layer id="167" name="Reshape_619153" type="Reshape" version="opset1">
			<data special_zero="false" />
			<input>
				<port id="0" precision="FP16">
					<dim>256</dim>
					<dim>16</dim>
					<dim>128</dim>
				</port>
				<port id="1" precision="I64">
					<dim>2</dim>
				</port>
			</input>
			<output>
				<port id="2" precision="FP16">
					<dim>256</dim>
					<dim>2048</dim>
				</port>
			</output>
		</layer>
		<layer id="168" name="__module.model.layers.0.self_attn.v_proj/ov_ext::linear/Convert" type="Convert" version="opset1">
			<data destination_type="f32" />
			<rt_info>
				<attribute name="decompression" version="0" />
			</rt_info>
			<input>
				<port id="0" precision="FP16">
					<dim>256</dim>
					<dim>2048</dim>
				</port>
			</input>
			<output>
				<port id="1" precision="FP32">
					<dim>256</dim>
					<dim>2048</dim>
				</port>
			</output>
		</layer>
		<layer id="169" name="__module.model.layers.0.self_attn.v_proj/ov_ext::linear/MatMul" type="MatMul" version="opset1">
			<data transpose_a="false" transpose_b="true" />
			<input>
				<port id="0" precision="FP32">
					<dim>-1</dim>
					<dim>-1</dim>
					<dim>2048</dim>
				</port>
				<port id="1" precision="FP32">
					<dim>256</dim>
					<dim>2048</dim>
				</port>
			</input>
			<output>
				<port id="2" precision="FP32" names="343">
					<dim>-1</dim>
					<dim>-1</dim>
					<dim>256</dim>
				</port>
			</output>
		</layer>
		<layer id="170" name="Constant_63459" type="Const" version="opset1">
			<data element_type="i64" shape="4" offset="68081712" size="32" />
			<output>
				<port id="0" precision="I64">
					<dim>4</dim>
				</port>
			</output>
		</layer>
		<layer id="171" name="__module.model.layers.0.self_attn/aten::view/Reshape_2" type="Reshape" version="opset1">
			<data special_zero="true" />
			<input>
				<port id="0" precision="FP32">
					<dim>-1</dim>
					<dim>-1</dim>
					<dim>256</dim>
				</port>
				<port id="1" precision="I64">
					<dim>4</dim>
				</port>
			</input>
			<output>
				<port id="2" precision="FP32" names="345">
					<dim>-1</dim>
					<dim>-1</dim>
					<dim>4</dim>
					<dim>64</dim>
				</port>
			</output>
		</layer>
		<layer id="172" name="__module.model.layers.0.self_attn/aten::transpose/Constant_2" type="Const" version="opset1">
			<data element_type="i32" shape="4" offset="67811168" size="16" />
			<output>
				<port id="0" precision="I32">
					<dim>4</dim>
				</port>
			</output>
		</layer>
		<layer id="173" name="__module.model.layers.0.self_attn/aten::transpose/Transpose_2" type="Transpose" version="opset1">
			<input>
				<port id="0" precision="FP32">
					<dim>-1</dim>
					<dim>-1</dim>
					<dim>4</dim>
					<dim>64</dim>
				</port>
				<port id="1" precision="I32">
					<dim>4</dim>
				</port>
			</input>
			<output>
				<port id="2" precision="FP32" names="346,value_states.1">
					<dim>-1</dim>
					<dim>4</dim>
					<dim>-1</dim>
					<dim>64</dim>
				</port>
			</output>
		</layer>
		<layer id="174" name="__module.model.layers.0.self_attn/aten::cat/Concat_3" type="Concat" version="opset1">
			<data axis="-2" />
			<input>
				<port id="0" precision="FP32">
					<dim>-1</dim>
					<dim>4</dim>
					<dim>-1</dim>
					<dim>64</dim>
				</port>
				<port id="1" precision="FP32">
					<dim>-1</dim>
					<dim>4</dim>
					<dim>-1</dim>
					<dim>64</dim>
				</port>
			</input>
			<output>
				<port id="2" precision="FP32" names="406,407,hidden_states.13">
					<dim>-1</dim>
					<dim>4</dim>
					<dim>-1</dim>
					<dim>64</dim>
				</port>
			</output>
		</layer>
		<layer id="175" name="__module.model.layers.0.self_attn/aten::unsqueeze/Unsqueeze_3" type="Unsqueeze" version="opset1">
			<input>
				<port id="0" precision="FP32">
					<dim>-1</dim>
					<dim>4</dim>
					<dim>-1</dim>
					<dim>64</dim>
				</port>
				<port id="1" precision="I64" />
			</input>
			<output>
				<port id="2" precision="FP32" names="408,409,410">
					<dim>-1</dim>
					<dim>4</dim>
					<dim>1</dim>
					<dim>-1</dim>
					<dim>64</dim>
				</port>
			</output>
		</layer>
		<layer id="176" name="__module.model.layers.0.self_attn/aten::expand/Broadcast_1" type="Broadcast" version="opset3">
			<data mode="bidirectional" />
			<input>
				<port id="0" precision="FP32">
					<dim>-1</dim>
					<dim>4</dim>
					<dim>1</dim>
					<dim>-1</dim>
					<dim>64</dim>
				</port>
				<port id="1" precision="I64">
					<dim>5</dim>
				</port>
			</input>
			<output>
				<port id="2" precision="FP32" names="412,hidden_states.15">
					<dim>-1</dim>
					<dim>4</dim>
					<dim>8</dim>
					<dim>-1</dim>
					<dim>64</dim>
				</port>
			</output>
		</layer>
		<layer id="177" name="Constant_63460" type="Const" version="opset1">
			<data element_type="i64" shape="4" offset="68081776" size="32" />
			<output>
				<port id="0" precision="I64">
					<dim>4</dim>
				</port>
			</output>
		</layer>
		<layer id="178" name="__module.model.layers.0.self_attn/aten::reshape/Reshape_1" type="Reshape" version="opset1">
			<data special_zero="true" />
			<input>
				<port id="0" precision="FP32">
					<dim>-1</dim>
					<dim>4</dim>
					<dim>8</dim>
					<dim>-1</dim>
					<dim>64</dim>
				</port>
				<port id="1" precision="I64">
					<dim>4</dim>
				</port>
			</input>
			<output>
				<port id="2" precision="FP32" names="416,value.1">
					<dim>-1</dim>
					<dim>32</dim>
					<dim>-1</dim>
					<dim>64</dim>
				</port>
			</output>
		</layer>
		<layer id="179" name="__module.model/aten::new_ones/Broadcast" type="Const" version="opset1">
			<data element_type="boolean" shape="" offset="68352144" size="1" />
			<output>
				<port id="0" precision="BOOL" names="266,result.1" />
			</output>
		</layer>
		<layer id="180" name="__module.model/aten::arange/Constant" type="Const" version="opset1">
			<data element_type="i32" shape="" offset="0" size="4" />
			<output>
				<port id="0" precision="I32" />
			</output>
		</layer>
		<layer id="181" name="__module.model/aten::size/Constant_2" type="Const" version="opset1">
			<data element_type="i32" shape="" offset="0" size="4" />
			<output>
				<port id="0" precision="I32" />
			</output>
		</layer>
		<layer id="182" name="__module.model/aten::size/Gather_2" type="Squeeze" version="opset1">
			<input>
				<port id="0" precision="I64">
					<dim>1</dim>
				</port>
				<port id="1" precision="I32" />
			</input>
			<output>
				<port id="2" precision="I64" names="241,249" />
			</output>
		</layer>
		<layer id="183" name="__module.model/aten::add/Add_1" type="Add" version="opset1">
			<data auto_broadcast="numpy" />
			<input>
				<port id="0" precision="I64" />
				<port id="1" precision="I64" />
			</input>
			<output>
				<port id="2" precision="I64" names="245,246,kv_length" />
			</output>
		</layer>
		<layer id="184" name="__module.model/aten::arange/Constant_2" type="Const" version="opset1">
			<data element_type="i32" shape="" offset="68352145" size="4" />
			<output>
				<port id="0" precision="I32" />
			</output>
		</layer>
		<layer id="185" name="__module.model/aten::arange/Range_1" type="Range" version="opset4">
			<data output_type="i64" />
			<input>
				<port id="0" precision="I32" />
				<port id="1" precision="I64" />
				<port id="2" precision="I32" />
			</input>
			<output>
				<port id="3" precision="I64" names="259">
					<dim>-1</dim>
				</port>
			</output>
		</layer>
		<layer id="186" name="177" type="Const" version="opset1">
			<data element_type="i64" shape="" offset="4" size="8" />
			<output>
				<port id="0" precision="I64" names="177" />
			</output>
		</layer>
		<layer id="187" name="__module.model/aten::unsqueeze/Unsqueeze" type="Unsqueeze" version="opset1">
			<input>
				<port id="0" precision="I64">
					<dim>-1</dim>
				</port>
				<port id="1" precision="I64" />
			</input>
			<output>
				<port id="2" precision="I64" names="260">
					<dim>1</dim>
					<dim>-1</dim>
				</port>
			</output>
		</layer>
		<layer id="188" name="__module.model/aten::unsqueeze/Unsqueeze_1" type="Unsqueeze" version="opset1">
			<input>
				<port id="0" precision="I64">
					<dim>1</dim>
					<dim>-1</dim>
				</port>
				<port id="1" precision="I64" />
			</input>
			<output>
				<port id="2" precision="I64" names="261">
					<dim>1</dim>
					<dim>1</dim>
					<dim>-1</dim>
				</port>
			</output>
		</layer>
		<layer id="189" name="__module.model/aten::unsqueeze/Unsqueeze_2" type="Unsqueeze" version="opset1">
			<input>
				<port id="0" precision="I64">
					<dim>1</dim>
					<dim>1</dim>
					<dim>-1</dim>
				</port>
				<port id="1" precision="I64" />
			</input>
			<output>
				<port id="2" precision="I64" names="262,263,264,kv_idx">
					<dim>1</dim>
					<dim>1</dim>
					<dim>1</dim>
					<dim>-1</dim>
				</port>
			</output>
		</layer>
		<layer id="190" name="__module.model/aten::add/Add" type="Add" version="opset1">
			<data auto_broadcast="numpy" />
			<input>
				<port id="0" precision="I64" />
				<port id="1" precision="I64" />
			</input>
			<output>
				<port id="2" precision="I64" names="237" />
			</output>
		</layer>
		<layer id="191" name="__module.model/aten::arange/Constant_1" type="Const" version="opset1">
			<data element_type="i32" shape="" offset="68352145" size="4" />
			<output>
				<port id="0" precision="I32" />
			</output>
		</layer>
		<layer id="192" name="__module.model/aten::arange/Range" type="Range" version="opset4">
			<data output_type="i64" />
			<input>
				<port id="0" precision="I64" />
				<port id="1" precision="I64" />
				<port id="2" precision="I32" />
			</input>
			<output>
				<port id="3" precision="I64" names="239,cache_position">
					<dim>-1</dim>
				</port>
			</output>
		</layer>
		<layer id="193" name="__module.model/aten::unsqueeze/Unsqueeze_3" type="Unsqueeze" version="opset1">
			<input>
				<port id="0" precision="I64">
					<dim>-1</dim>
				</port>
				<port id="1" precision="I64" />
			</input>
			<output>
				<port id="2" precision="I64" names="250">
					<dim>1</dim>
					<dim>-1</dim>
				</port>
			</output>
		</layer>
		<layer id="194" name="__module.model/aten::unsqueeze/Unsqueeze_4" type="Unsqueeze" version="opset1">
			<input>
				<port id="0" precision="I64">
					<dim>1</dim>
					<dim>-1</dim>
				</port>
				<port id="1" precision="I64" />
			</input>
			<output>
				<port id="2" precision="I64" names="251,252">
					<dim>1</dim>
					<dim>1</dim>
					<dim>-1</dim>
				</port>
			</output>
		</layer>
		<layer id="195" name="175" type="Const" version="opset1">
			<data element_type="i64" shape="" offset="67811348" size="8" />
			<output>
				<port id="0" precision="I64" names="175" />
			</output>
		</layer>
		<layer id="196" name="__module.model/aten::unsqueeze/Unsqueeze_5" type="Unsqueeze" version="opset1">
			<input>
				<port id="0" precision="I64">
					<dim>1</dim>
					<dim>1</dim>
					<dim>-1</dim>
				</port>
				<port id="1" precision="I64" />
			</input>
			<output>
				<port id="2" precision="I64" names="253,q_idx">
					<dim>1</dim>
					<dim>1</dim>
					<dim>-1</dim>
					<dim>1</dim>
				</port>
			</output>
		</layer>
		<layer id="197" name="__module.model/aten::le/LessEqual" type="LessEqual" version="opset1">
			<data auto_broadcast="numpy" />
			<input>
				<port id="0" precision="I64">
					<dim>1</dim>
					<dim>1</dim>
					<dim>1</dim>
					<dim>-1</dim>
				</port>
				<port id="1" precision="I64">
					<dim>1</dim>
					<dim>1</dim>
					<dim>-1</dim>
					<dim>1</dim>
				</port>
			</input>
			<output>
				<port id="2" precision="BOOL" names="267,268">
					<dim>1</dim>
					<dim>1</dim>
					<dim>-1</dim>
					<dim>-1</dim>
				</port>
			</output>
		</layer>
		<layer id="198" name="__module.model/aten::__and__/BitwiseAnd" type="BitwiseAnd" version="opset13">
			<data auto_broadcast="numpy" />
			<input>
				<port id="0" precision="BOOL" />
				<port id="1" precision="BOOL">
					<dim>1</dim>
					<dim>1</dim>
					<dim>-1</dim>
					<dim>-1</dim>
				</port>
			</input>
			<output>
				<port id="2" precision="BOOL" names="269,result">
					<dim>1</dim>
					<dim>1</dim>
					<dim>-1</dim>
					<dim>-1</dim>
				</port>
			</output>
		</layer>
		<layer id="199" name="__module.model/aten::to/Convert_1" type="Convert" version="opset1">
			<data destination_type="boolean" />
			<input>
				<port id="0" precision="I64">
					<dim>-1</dim>
					<dim>-1</dim>
				</port>
			</input>
			<output>
				<port id="1" precision="BOOL" names="240,attention_mask.3">
					<dim>-1</dim>
					<dim>-1</dim>
				</port>
			</output>
		</layer>
		<layer id="200" name="__module.model/aten::index/ShapeOf_1" type="ShapeOf" version="opset3">
			<data output_type="i32" />
			<input>
				<port id="0" precision="BOOL">
					<dim>-1</dim>
					<dim>-1</dim>
				</port>
			</input>
			<output>
				<port id="1" precision="I32">
					<dim>2</dim>
				</port>
			</output>
		</layer>
		<layer id="201" name="Constant_24915" type="Const" version="opset1">
			<data element_type="i32" shape="" offset="0" size="4" />
			<output>
				<port id="0" precision="I32" />
			</output>
		</layer>
		<layer id="202" name="__module.model/aten::index/ReduceProd" type="ReduceProd" version="opset1">
			<data keep_dims="true" />
			<input>
				<port id="0" precision="I32">
					<dim>2</dim>
				</port>
				<port id="1" precision="I32" />
			</input>
			<output>
				<port id="2" precision="I32">
					<dim>1</dim>
				</port>
			</output>
		</layer>
		<layer id="203" name="Constant_24917" type="Const" version="opset1">
			<data element_type="i32" shape="1" offset="67811356" size="4" />
			<output>
				<port id="0" precision="I32">
					<dim>1</dim>
				</port>
			</output>
		</layer>
		<layer id="204" name="__module.model/aten::index/Concat" type="Concat" version="opset1">
			<data axis="0" />
			<input>
				<port id="0" precision="I32">
					<dim>1</dim>
				</port>
				<port id="1" precision="I32">
					<dim>1</dim>
				</port>
			</input>
			<output>
				<port id="2" precision="I32">
					<dim>2</dim>
				</port>
			</output>
		</layer>
		<layer id="205" name="__module.model/aten::index/Reshape" type="Reshape" version="opset1">
			<data special_zero="true" />
			<input>
				<port id="0" precision="BOOL">
					<dim>-1</dim>
					<dim>-1</dim>
				</port>
				<port id="1" precision="I32">
					<dim>2</dim>
				</port>
			</input>
			<output>
				<port id="2" precision="BOOL">
					<dim>-1</dim>
					<dim>-1</dim>
				</port>
			</output>
		</layer>
		<layer id="206" name="__module.model/aten::index/Convert" type="Convert" version="opset1">
			<data destination_type="i32" />
			<input>
				<port id="0" precision="I64">
					<dim>1</dim>
					<dim>1</dim>
					<dim>1</dim>
					<dim>-1</dim>
				</port>
			</input>
			<output>
				<port id="1" precision="I32">
					<dim>1</dim>
					<dim>1</dim>
					<dim>1</dim>
					<dim>-1</dim>
				</port>
			</output>
		</layer>
		<layer id="207" name="__module.model/aten::arange/Constant_3" type="Const" version="opset1">
			<data element_type="i32" shape="" offset="0" size="4" />
			<output>
				<port id="0" precision="I32" />
			</output>
		</layer>
		<layer id="208" name="Squeeze_58197" type="Squeeze" version="opset1">
			<input>
				<port id="0" precision="I64">
					<dim>1</dim>
				</port>
			</input>
			<output>
				<port id="1" precision="I64" names="248" />
			</output>
		</layer>
		<layer id="209" name="__module.model/aten::arange/Constant_4" type="Const" version="opset1">
			<data element_type="i32" shape="" offset="68352145" size="4" />
			<output>
				<port id="0" precision="I32" />
			</output>
		</layer>
		<layer id="210" name="__module.model/aten::arange/Range_2" type="Range" version="opset4">
			<data output_type="i64" />
			<input>
				<port id="0" precision="I32" />
				<port id="1" precision="I64" />
				<port id="2" precision="I32" />
			</input>
			<output>
				<port id="3" precision="I64" names="254,255">
					<dim>-1</dim>
				</port>
			</output>
		</layer>
		<layer id="211" name="__module.model/aten::unsqueeze/Unsqueeze_6" type="Unsqueeze" version="opset1">
			<input>
				<port id="0" precision="I64">
					<dim>-1</dim>
				</port>
				<port id="1" precision="I64" />
			</input>
			<output>
				<port id="2" precision="I64" names="256">
					<dim>-1</dim>
					<dim>1</dim>
				</port>
			</output>
		</layer>
		<layer id="212" name="__module.model/aten::unsqueeze/Unsqueeze_7" type="Unsqueeze" version="opset1">
			<input>
				<port id="0" precision="I64">
					<dim>-1</dim>
					<dim>1</dim>
				</port>
				<port id="1" precision="I64" />
			</input>
			<output>
				<port id="2" precision="I64" names="257">
					<dim>-1</dim>
					<dim>1</dim>
					<dim>1</dim>
				</port>
			</output>
		</layer>
		<layer id="213" name="__module.model/aten::unsqueeze/Unsqueeze_8" type="Unsqueeze" version="opset1">
			<input>
				<port id="0" precision="I64">
					<dim>-1</dim>
					<dim>1</dim>
					<dim>1</dim>
				</port>
				<port id="1" precision="I64" />
			</input>
			<output>
				<port id="2" precision="I64" names="258,batch_idx">
					<dim>-1</dim>
					<dim>1</dim>
					<dim>1</dim>
					<dim>1</dim>
				</port>
			</output>
		</layer>
		<layer id="214" name="__module.model/aten::index/Convert_3" type="Convert" version="opset1">
			<data destination_type="i32" />
			<input>
				<port id="0" precision="I64">
					<dim>-1</dim>
					<dim>1</dim>
					<dim>1</dim>
					<dim>1</dim>
				</port>
			</input>
			<output>
				<port id="1" precision="I32">
					<dim>-1</dim>
					<dim>1</dim>
					<dim>1</dim>
					<dim>1</dim>
				</port>
			</output>
		</layer>
		<layer id="215" name="__module.model/aten::index/Constant" type="Const" version="opset1">
			<data element_type="i32" shape="" offset="0" size="4" />
			<output>
				<port id="0" precision="I32" />
			</output>
		</layer>
		<layer id="216" name="__module.model/aten::index/Split" type="Split" version="opset1">
			<data num_splits="2" />
			<input>
				<port id="0" precision="I32">
					<dim>2</dim>
				</port>
				<port id="1" precision="I32" />
			</input>
			<output>
				<port id="2" precision="I32">
					<dim>1</dim>
				</port>
				<port id="3" precision="I32">
					<dim>1</dim>
				</port>
			</output>
		</layer>
		<layer id="217" name="__module.model/aten::index/Multiply" type="Multiply" version="opset1">
			<data auto_broadcast="numpy" />
			<input>
				<port id="0" precision="I32">
					<dim>-1</dim>
					<dim>1</dim>
					<dim>1</dim>
					<dim>1</dim>
				</port>
				<port id="1" precision="I32">
					<dim>1</dim>
				</port>
			</input>
			<output>
				<port id="2" precision="I32">
					<dim>-1</dim>
					<dim>1</dim>
					<dim>1</dim>
					<dim>1</dim>
				</port>
			</output>
		</layer>
		<layer id="218" name="__module.model/aten::index/Add" type="Add" version="opset1">
			<data auto_broadcast="numpy" />
			<input>
				<port id="0" precision="I32">
					<dim>1</dim>
					<dim>1</dim>
					<dim>1</dim>
					<dim>-1</dim>
				</port>
				<port id="1" precision="I32">
					<dim>-1</dim>
					<dim>1</dim>
					<dim>1</dim>
					<dim>1</dim>
				</port>
			</input>
			<output>
				<port id="2" precision="I32">
					<dim>-1</dim>
					<dim>1</dim>
					<dim>1</dim>
					<dim>-1</dim>
				</port>
			</output>
		</layer>
		<layer id="219" name="__module.model/aten::index/Gather" type="Gather" version="opset8">
			<data batch_dims="0" />
			<input>
				<port id="0" precision="BOOL">
					<dim>-1</dim>
					<dim>-1</dim>
				</port>
				<port id="1" precision="I32">
					<dim>-1</dim>
					<dim>1</dim>
					<dim>1</dim>
					<dim>-1</dim>
				</port>
				<port id="2" precision="I32" />
			</input>
			<output>
				<port id="3" precision="BOOL">
					<dim>-1</dim>
					<dim>1</dim>
					<dim>1</dim>
					<dim>-1</dim>
					<dim>-1</dim>
				</port>
			</output>
		</layer>
		<layer id="220" name="Constant_40601" type="Const" version="opset1">
			<data element_type="i64" shape="1" offset="65648420" size="8" />
			<output>
				<port id="0" precision="I64">
					<dim>1</dim>
				</port>
			</output>
		</layer>
		<layer id="221" name="__module.model/aten::index/Reshape_8" type="Reshape" version="opset1">
			<data special_zero="false" />
			<input>
				<port id="0" precision="BOOL">
					<dim>-1</dim>
					<dim>1</dim>
					<dim>1</dim>
					<dim>-1</dim>
					<dim>-1</dim>
				</port>
				<port id="1" precision="I64">
					<dim>1</dim>
				</port>
			</input>
			<output>
				<port id="2" precision="BOOL">
					<dim>-1</dim>
				</port>
			</output>
		</layer>
		<layer id="222" name="__module.model/aten::index/ShapeOf_5" type="ShapeOf" version="opset3">
			<data output_type="i32" />
			<input>
				<port id="0" precision="I32">
					<dim>-1</dim>
					<dim>1</dim>
					<dim>1</dim>
					<dim>-1</dim>
				</port>
			</input>
			<output>
				<port id="1" precision="I32">
					<dim>4</dim>
				</port>
			</output>
		</layer>
		<layer id="223" name="__module.model/aten::index/Reshape_12" type="Reshape" version="opset1">
			<data special_zero="false" />
			<input>
				<port id="0" precision="BOOL">
					<dim>-1</dim>
				</port>
				<port id="1" precision="I32">
					<dim>4</dim>
				</port>
			</input>
			<output>
				<port id="2" precision="BOOL" names="271,272">
					<dim>-1</dim>
					<dim>1</dim>
					<dim>1</dim>
					<dim>-1</dim>
				</port>
			</output>
		</layer>
		<layer id="224" name="__module.model/aten::__and__/BitwiseAnd_1" type="BitwiseAnd" version="opset13">
			<data auto_broadcast="numpy" />
			<input>
				<port id="0" precision="BOOL">
					<dim>1</dim>
					<dim>1</dim>
					<dim>-1</dim>
					<dim>-1</dim>
				</port>
				<port id="1" precision="BOOL">
					<dim>-1</dim>
					<dim>1</dim>
					<dim>1</dim>
					<dim>-1</dim>
				</port>
			</input>
			<output>
				<port id="2" precision="BOOL" names="273,causal_mask">
					<dim>-1</dim>
					<dim>1</dim>
					<dim>-1</dim>
					<dim>-1</dim>
				</port>
			</output>
		</layer>
		<layer id="225" name="Constant_49976" type="Const" version="opset1">
			<data element_type="i64" shape="1" offset="67811312" size="8" />
			<output>
				<port id="0" precision="I64">
					<dim>1</dim>
				</port>
			</output>
		</layer>
		<layer id="226" name="Constant_225" type="Const" version="opset1">
			<data element_type="i32" shape="" offset="0" size="4" />
			<output>
				<port id="0" precision="I32" />
			</output>
		</layer>
		<layer id="227" name="Unsqueeze_226" type="Unsqueeze" version="opset1">
			<input>
				<port id="0" precision="I64" />
				<port id="1" precision="I32" />
			</input>
			<output>
				<port id="2" precision="I64">
					<dim>1</dim>
				</port>
			</output>
		</layer>
		<layer id="228" name="__module.model/prim::ListConstruct" type="Concat" version="opset1">
			<data axis="0" />
			<input>
				<port id="0" precision="I64">
					<dim>1</dim>
				</port>
				<port id="1" precision="I64">
					<dim>1</dim>
				</port>
				<port id="2" precision="I64">
					<dim>1</dim>
				</port>
				<port id="3" precision="I64">
					<dim>1</dim>
				</port>
			</input>
			<output>
				<port id="4" precision="I64">
					<dim>4</dim>
				</port>
			</output>
		</layer>
		<layer id="229" name="__module.model/aten::expand/Broadcast" type="Broadcast" version="opset3">
			<data mode="bidirectional" />
			<input>
				<port id="0" precision="BOOL">
					<dim>-1</dim>
					<dim>1</dim>
					<dim>-1</dim>
					<dim>-1</dim>
				</port>
				<port id="1" precision="I64">
					<dim>4</dim>
				</port>
			</input>
			<output>
				<port id="2" precision="BOOL" names="275,mask">
					<dim>-1</dim>
					<dim>1</dim>
					<dim>-1</dim>
					<dim>-1</dim>
				</port>
			</output>
		</layer>
		<layer id="230" name="__module.model/aten::to/Convert_3" type="Const" version="opset1">
			<data element_type="f32" shape="" offset="0" size="4" />
			<output>
				<port id="0" precision="FP32" names="276" />
			</output>
		</layer>
		<layer id="231" name="__module.model/aten::to/Convert_4" type="Const" version="opset1">
			<data element_type="f32" shape="" offset="68352149" size="4" />
			<output>
				<port id="0" precision="FP32" names="278" />
			</output>
		</layer>
		<layer id="232" name="__module.model/aten::where/Select" type="Select" version="opset1">
			<data auto_broadcast="numpy" />
			<input>
				<port id="0" precision="BOOL">
					<dim>-1</dim>
					<dim>1</dim>
					<dim>-1</dim>
					<dim>-1</dim>
				</port>
				<port id="1" precision="FP32" />
				<port id="2" precision="FP32" />
			</input>
			<output>
				<port id="3" precision="FP32" names="1050,1051,1052,1208,1209,1210,1366,1367,1368,1524,1525,1526,1682,1683,1684,1840,1841,1842,1998,1999,2000,2156,2157,2158,2314,2315,2316,2472,2473,2474,2630,2631,2632,2788,2789,2790,280,2946,2947,2948,3104,3105,3106,3262,3263,3264,3420,3421,3422,3578,3579,3580,3736,3737,3738,418,419,420,576,577,578,734,735,736,892,893,894,attention_mask.5">
					<dim>-1</dim>
					<dim>1</dim>
					<dim>-1</dim>
					<dim>-1</dim>
				</port>
			</output>
		</layer>
		<layer id="233" name="Constant_1332" type="Const" version="opset1">
			<data element_type="i64" shape="1" offset="4" size="8" />
			<output>
				<port id="0" precision="I64">
					<dim>1</dim>
				</port>
			</output>
		</layer>
		<layer id="234" name="Constant_1335" type="Const" version="opset1">
			<data element_type="i64" shape="1" offset="67811312" size="8" />
			<output>
				<port id="0" precision="I64">
					<dim>1</dim>
				</port>
			</output>
		</layer>
		<layer id="235" name="Constant_1330" type="Const" version="opset1">
			<data element_type="i64" shape="1" offset="67811348" size="8" />
			<output>
				<port id="0" precision="I64">
					<dim>1</dim>
				</port>
			</output>
		</layer>
		<layer id="236" name="__module.model.layers.0.self_attn/aten::slice/Slice_15" type="Slice" version="opset8">
			<input>
				<port id="0" precision="FP32">
					<dim>-1</dim>
					<dim>1</dim>
					<dim>-1</dim>
					<dim>-1</dim>
				</port>
				<port id="1" precision="I64">
					<dim>1</dim>
				</port>
				<port id="2" precision="I64">
					<dim>1</dim>
				</port>
				<port id="3" precision="I64">
					<dim>1</dim>
				</port>
				<port id="4" precision="I64">
					<dim>1</dim>
				</port>
			</input>
			<output>
				<port id="5" precision="FP32" names="1053,1211,1369,1527,1685,1843,2001,2159,2317,2475,2633,2791,2949,3107,3265,3423,3581,3739,421,579,737,895,attention_mask.11,attention_mask.13,attention_mask.15,attention_mask.17,attention_mask.19,attention_mask.21,attention_mask.23,attention_mask.25,attention_mask.27,attention_mask.29,attention_mask.31,attention_mask.33,attention_mask.35,attention_mask.37,attention_mask.39,attention_mask.41,attention_mask.43,attention_mask.45,attention_mask.47,attention_mask.7,attention_mask.9,attention_mask_1">
					<dim>-1</dim>
					<dim>1</dim>
					<dim>-1</dim>
					<dim>-1</dim>
				</port>
			</output>
		</layer>
		<layer id="237" name="__module.model.layers.0.self_attn/aten::scaled_dot_product_attention/ConvertLike" type="Const" version="opset1">
			<data element_type="f32" shape="" offset="68352153" size="4" />
			<output>
				<port id="0" precision="FP32" />
			</output>
		</layer>
		<layer id="238" name="__module.model.layers.0.self_attn/aten::scaled_dot_product_attention/ScaledDotProductAttention" type="ScaledDotProductAttention" version="opset13">
			<data causal="false" />
			<input>
				<port id="0" precision="FP32">
					<dim>-1</dim>
					<dim>32</dim>
					<dim>-1</dim>
					<dim>64</dim>
				</port>
				<port id="1" precision="FP32">
					<dim>-1</dim>
					<dim>32</dim>
					<dim>-1</dim>
					<dim>64</dim>
				</port>
				<port id="2" precision="FP32">
					<dim>-1</dim>
					<dim>32</dim>
					<dim>-1</dim>
					<dim>64</dim>
				</port>
				<port id="3" precision="FP32">
					<dim>-1</dim>
					<dim>1</dim>
					<dim>-1</dim>
					<dim>-1</dim>
				</port>
				<port id="4" precision="FP32" />
			</input>
			<output>
				<port id="5" precision="FP32" names="425,attn_output.1">
					<dim>-1</dim>
					<dim>32</dim>
					<dim>-1</dim>
					<dim>64</dim>
				</port>
			</output>
		</layer>
		<layer id="239" name="__module.model.layers.0.self_attn/aten::transpose/Constant_3" type="Const" version="opset1">
			<data element_type="i32" shape="4" offset="67811168" size="16" />
			<output>
				<port id="0" precision="I32">
					<dim>4</dim>
				</port>
			</output>
		</layer>
		<layer id="240" name="__module.model.layers.0.self_attn/aten::transpose/Transpose_3" type="Transpose" version="opset1">
			<input>
				<port id="0" precision="FP32">
					<dim>-1</dim>
					<dim>32</dim>
					<dim>-1</dim>
					<dim>64</dim>
				</port>
				<port id="1" precision="I32">
					<dim>4</dim>
				</port>
			</input>
			<output>
				<port id="2" precision="FP32" names="426">
					<dim>-1</dim>
					<dim>-1</dim>
					<dim>32</dim>
					<dim>64</dim>
				</port>
			</output>
		</layer>
		<layer id="241" name="Constant_63461" type="Const" version="opset1">
			<data element_type="i64" shape="3" offset="68352157" size="24" />
			<output>
				<port id="0" precision="I64">
					<dim>3</dim>
				</port>
			</output>
		</layer>
		<layer id="242" name="__module.model.layers.0.self_attn/aten::reshape/Reshape_2" type="Reshape" version="opset1">
			<data special_zero="true" />
			<input>
				<port id="0" precision="FP32">
					<dim>-1</dim>
					<dim>-1</dim>
					<dim>32</dim>
					<dim>64</dim>
				</port>
				<port id="1" precision="I64">
					<dim>3</dim>
				</port>
			</input>
			<output>
				<port id="2" precision="FP32" names="429">
					<dim>-1</dim>
					<dim>-1</dim>
					<dim>2048</dim>
				</port>
			</output>
		</layer>
		<layer id="243" name="self.model.layers.0.self_attn.o_proj.weight" type="Const" version="opset1">
			<data element_type="i4" shape="2048, 16, 128" offset="68352181" size="2097152" />
			<output>
				<port id="0" precision="I4">
					<dim>2048</dim>
					<dim>16</dim>
					<dim>128</dim>
				</port>
			</output>
		</layer>
		<layer id="244" name="Convert_410324" type="Convert" version="opset1">
			<data destination_type="f16" />
			<input>
				<port id="0" precision="I4">
					<dim>2048</dim>
					<dim>16</dim>
					<dim>128</dim>
				</port>
			</input>
			<output>
				<port id="1" precision="FP16">
					<dim>2048</dim>
					<dim>16</dim>
					<dim>128</dim>
				</port>
			</output>
		</layer>
		<layer id="245" name="self.model.layers.0.self_attn.o_proj.weight/scale" type="Const" version="opset1">
			<data element_type="f16" shape="2048, 16, 1" offset="70449333" size="65536" />
			<output>
				<port id="0" precision="FP16">
					<dim>2048</dim>
					<dim>16</dim>
					<dim>1</dim>
				</port>
			</output>
		</layer>
		<layer id="246" name="self.model.layers.0.self_attn.o_proj.weight/fq_weights_1" type="Multiply" version="opset1">
			<data auto_broadcast="numpy" />
			<input>
				<port id="0" precision="FP16">
					<dim>2048</dim>
					<dim>16</dim>
					<dim>128</dim>
				</port>
				<port id="1" precision="FP16">
					<dim>2048</dim>
					<dim>16</dim>
					<dim>1</dim>
				</port>
			</input>
			<output>
				<port id="2" precision="FP16">
					<dim>2048</dim>
					<dim>16</dim>
					<dim>128</dim>
				</port>
			</output>
		</layer>
		<layer id="247" name="Constant_410328" type="Const" version="opset1">
			<data element_type="i64" shape="2" offset="67811120" size="16" />
			<output>
				<port id="0" precision="I64">
					<dim>2</dim>
				</port>
			</output>
		</layer>
		<layer id="248" name="Reshape_410329" type="Reshape" version="opset1">
			<data special_zero="false" />
			<input>
				<port id="0" precision="FP16">
					<dim>2048</dim>
					<dim>16</dim>
					<dim>128</dim>
				</port>
				<port id="1" precision="I64">
					<dim>2</dim>
				</port>
			</input>
			<output>
				<port id="2" precision="FP16">
					<dim>2048</dim>
					<dim>2048</dim>
				</port>
			</output>
		</layer>
		<layer id="249" name="__module.model.layers.0.self_attn.o_proj/ov_ext::linear/Convert" type="Convert" version="opset1">
			<data destination_type="f32" />
			<rt_info>
				<attribute name="decompression" version="0" />
			</rt_info>
			<input>
				<port id="0" precision="FP16">
					<dim>2048</dim>
					<dim>2048</dim>
				</port>
			</input>
			<output>
				<port id="1" precision="FP32">
					<dim>2048</dim>
					<dim>2048</dim>
				</port>
			</output>
		</layer>
		<layer id="250" name="__module.model.layers.0.self_attn.o_proj/ov_ext::linear/MatMul" type="MatMul" version="opset1">
			<data transpose_a="false" transpose_b="true" />
			<input>
				<port id="0" precision="FP32">
					<dim>-1</dim>
					<dim>-1</dim>
					<dim>2048</dim>
				</port>
				<port id="1" precision="FP32">
					<dim>2048</dim>
					<dim>2048</dim>
				</port>
			</input>
			<output>
				<port id="2" precision="FP32" names="432,434,hidden_states.17">
					<dim>-1</dim>
					<dim>-1</dim>
					<dim>2048</dim>
				</port>
			</output>
		</layer>
		<layer id="251" name="__module.model.layers.0/aten::add/Add" type="Add" version="opset1">
			<data auto_broadcast="numpy" />
			<input>
				<port id="0" precision="FP32">
					<dim>-1</dim>
					<dim>-1</dim>
					<dim>2048</dim>
				</port>
				<port id="1" precision="FP32">
					<dim>-1</dim>
					<dim>-1</dim>
					<dim>2048</dim>
				</port>
			</input>
			<output>
				<port id="2" precision="FP32" names="437,439,450,hidden_states.19,hidden_states.21">
					<dim>-1</dim>
					<dim>-1</dim>
					<dim>2048</dim>
				</port>
			</output>
		</layer>
		<layer id="252" name="Constant_56710" type="Const" version="opset1">
			<data element_type="f32" shape="1, 1, 2048" offset="70514869" size="8192" />
			<output>
				<port id="0" precision="FP32">
					<dim>1</dim>
					<dim>1</dim>
					<dim>2048</dim>
				</port>
			</output>
		</layer>
		<layer id="253" name="Constant_56709" type="Const" version="opset1">
			<data element_type="f32" shape="1, 1, 1" offset="65648412" size="4" />
			<output>
				<port id="0" precision="FP32">
					<dim>1</dim>
					<dim>1</dim>
					<dim>1</dim>
				</port>
			</output>
		</layer>
		<layer id="254" name="Constant_56707" type="Const" version="opset1">
			<data element_type="f32" shape="1, 1, 1" offset="65648416" size="4" />
			<output>
				<port id="0" precision="FP32">
					<dim>1</dim>
					<dim>1</dim>
					<dim>1</dim>
				</port>
			</output>
		</layer>
		<layer id="255" name="__module.model.layers.0.post_attention_layernorm/aten::pow/Power" type="Power" version="opset1">
			<data auto_broadcast="numpy" />
			<input>
				<port id="0" precision="FP32">
					<dim>-1</dim>
					<dim>-1</dim>
					<dim>2048</dim>
				</port>
				<port id="1" precision="FP32">
					<dim>1</dim>
					<dim>1</dim>
					<dim>1</dim>
				</port>
			</input>
			<output>
				<port id="2" precision="FP32" names="440">
					<dim>-1</dim>
					<dim>-1</dim>
					<dim>2048</dim>
				</port>
			</output>
		</layer>
		<layer id="256" name="Constant_1405" type="Const" version="opset1">
			<data element_type="i64" shape="1" offset="65648420" size="8" />
			<output>
				<port id="0" precision="I64" names="441">
					<dim>1</dim>
				</port>
			</output>
		</layer>
		<layer id="257" name="__module.model.layers.0.post_attention_layernorm/aten::mean/ReduceMean" type="ReduceMean" version="opset1">
			<data keep_dims="true" />
			<input>
				<port id="0" precision="FP32">
					<dim>-1</dim>
					<dim>-1</dim>
					<dim>2048</dim>
				</port>
				<port id="1" precision="I64">
					<dim>1</dim>
				</port>
			</input>
			<output>
				<port id="2" precision="FP32" names="442,variance.3">
					<dim>-1</dim>
					<dim>-1</dim>
					<dim>1</dim>
				</port>
			</output>
		</layer>
		<layer id="258" name="Constant_56708" type="Const" version="opset1">
			<data element_type="f32" shape="1, 1, 1" offset="65648428" size="4" />
			<output>
				<port id="0" precision="FP32">
					<dim>1</dim>
					<dim>1</dim>
					<dim>1</dim>
				</port>
			</output>
		</layer>
		<layer id="259" name="__module.model.layers.0.post_attention_layernorm/aten::add/Add" type="Add" version="opset1">
			<data auto_broadcast="numpy" />
			<input>
				<port id="0" precision="FP32">
					<dim>-1</dim>
					<dim>-1</dim>
					<dim>1</dim>
				</port>
				<port id="1" precision="FP32">
					<dim>1</dim>
					<dim>1</dim>
					<dim>1</dim>
				</port>
			</input>
			<output>
				<port id="2" precision="FP32" names="443">
					<dim>-1</dim>
					<dim>-1</dim>
					<dim>1</dim>
				</port>
			</output>
		</layer>
		<layer id="260" name="__module.model.layers.0.post_attention_layernorm/aten::rsqrt/Sqrt" type="Sqrt" version="opset1">
			<input>
				<port id="0" precision="FP32">
					<dim>-1</dim>
					<dim>-1</dim>
					<dim>1</dim>
				</port>
			</input>
			<output>
				<port id="1" precision="FP32">
					<dim>-1</dim>
					<dim>-1</dim>
					<dim>1</dim>
				</port>
			</output>
		</layer>
		<layer id="261" name="__module.model.layers.0.post_attention_layernorm/aten::rsqrt/Divide" type="Divide" version="opset1">
			<data auto_broadcast="numpy" m_pythondiv="true" />
			<input>
				<port id="0" precision="FP32">
					<dim>1</dim>
					<dim>1</dim>
					<dim>1</dim>
				</port>
				<port id="1" precision="FP32">
					<dim>-1</dim>
					<dim>-1</dim>
					<dim>1</dim>
				</port>
			</input>
			<output>
				<port id="2" precision="FP32" names="444">
					<dim>-1</dim>
					<dim>-1</dim>
					<dim>1</dim>
				</port>
			</output>
		</layer>
		<layer id="262" name="__module.model.layers.0.post_attention_layernorm/aten::mul/Multiply" type="Multiply" version="opset1">
			<data auto_broadcast="numpy" />
			<input>
				<port id="0" precision="FP32">
					<dim>-1</dim>
					<dim>-1</dim>
					<dim>2048</dim>
				</port>
				<port id="1" precision="FP32">
					<dim>-1</dim>
					<dim>-1</dim>
					<dim>1</dim>
				</port>
			</input>
			<output>
				<port id="2" precision="FP32" names="445,446,hidden_states.23,hidden_states.25">
					<dim>-1</dim>
					<dim>-1</dim>
					<dim>2048</dim>
				</port>
			</output>
		</layer>
		<layer id="263" name="__module.model.layers.0.post_attention_layernorm/aten::mul/Multiply_1" type="Multiply" version="opset1">
			<data auto_broadcast="numpy" />
			<input>
				<port id="0" precision="FP32">
					<dim>1</dim>
					<dim>1</dim>
					<dim>2048</dim>
				</port>
				<port id="1" precision="FP32">
					<dim>-1</dim>
					<dim>-1</dim>
					<dim>2048</dim>
				</port>
			</input>
			<output>
				<port id="2" precision="FP32" names="447,449">
					<dim>-1</dim>
					<dim>-1</dim>
					<dim>2048</dim>
				</port>
			</output>
		</layer>
		<layer id="264" name="self.model.layers.0.mlp.gate_proj.weight" type="Const" version="opset1">
			<data element_type="i4" shape="5632, 16, 128" offset="70523061" size="5767168" />
			<output>
				<port id="0" precision="I4">
					<dim>5632</dim>
					<dim>16</dim>
					<dim>128</dim>
				</port>
			</output>
		</layer>
		<layer id="265" name="Convert_97088" type="Convert" version="opset1">
			<data destination_type="f16" />
			<input>
				<port id="0" precision="I4">
					<dim>5632</dim>
					<dim>16</dim>
					<dim>128</dim>
				</port>
			</input>
			<output>
				<port id="1" precision="FP16">
					<dim>5632</dim>
					<dim>16</dim>
					<dim>128</dim>
				</port>
			</output>
		</layer>
		<layer id="266" name="self.model.layers.0.mlp.gate_proj.weight/scale" type="Const" version="opset1">
			<data element_type="f16" shape="5632, 16, 1" offset="76290229" size="180224" />
			<output>
				<port id="0" precision="FP16">
					<dim>5632</dim>
					<dim>16</dim>
					<dim>1</dim>
				</port>
			</output>
		</layer>
		<layer id="267" name="self.model.layers.0.mlp.gate_proj.weight/fq_weights_1" type="Multiply" version="opset1">
			<data auto_broadcast="numpy" />
			<input>
				<port id="0" precision="FP16">
					<dim>5632</dim>
					<dim>16</dim>
					<dim>128</dim>
				</port>
				<port id="1" precision="FP16">
					<dim>5632</dim>
					<dim>16</dim>
					<dim>1</dim>
				</port>
			</input>
			<output>
				<port id="2" precision="FP16">
					<dim>5632</dim>
					<dim>16</dim>
					<dim>128</dim>
				</port>
			</output>
		</layer>
		<layer id="268" name="Constant_97092" type="Const" version="opset1">
			<data element_type="i64" shape="2" offset="76470453" size="16" />
			<output>
				<port id="0" precision="I64">
					<dim>2</dim>
				</port>
			</output>
		</layer>
		<layer id="269" name="Reshape_97093" type="Reshape" version="opset1">
			<data special_zero="false" />
			<input>
				<port id="0" precision="FP16">
					<dim>5632</dim>
					<dim>16</dim>
					<dim>128</dim>
				</port>
				<port id="1" precision="I64">
					<dim>2</dim>
				</port>
			</input>
			<output>
				<port id="2" precision="FP16">
					<dim>5632</dim>
					<dim>2048</dim>
				</port>
			</output>
		</layer>
		<layer id="270" name="__module.model.layers.0.mlp.gate_proj/ov_ext::linear/Convert" type="Convert" version="opset1">
			<data destination_type="f32" />
			<rt_info>
				<attribute name="decompression" version="0" />
			</rt_info>
			<input>
				<port id="0" precision="FP16">
					<dim>5632</dim>
					<dim>2048</dim>
				</port>
			</input>
			<output>
				<port id="1" precision="FP32">
					<dim>5632</dim>
					<dim>2048</dim>
				</port>
			</output>
		</layer>
		<layer id="271" name="__module.model.layers.0.mlp.gate_proj/ov_ext::linear/MatMul" type="MatMul" version="opset1">
			<data transpose_a="false" transpose_b="true" />
			<input>
				<port id="0" precision="FP32">
					<dim>-1</dim>
					<dim>-1</dim>
					<dim>2048</dim>
				</port>
				<port id="1" precision="FP32">
					<dim>5632</dim>
					<dim>2048</dim>
				</port>
			</input>
			<output>
				<port id="2" precision="FP32" names="455,input.1">
					<dim>-1</dim>
					<dim>-1</dim>
					<dim>5632</dim>
				</port>
			</output>
		</layer>
		<layer id="272" name="__module.model.layers.0.mlp.act_fn/aten::silu/Swish" type="Swish" version="opset4">
			<input>
				<port id="0" precision="FP32">
					<dim>-1</dim>
					<dim>-1</dim>
					<dim>5632</dim>
				</port>
			</input>
			<output>
				<port id="1" precision="FP32" names="456">
					<dim>-1</dim>
					<dim>-1</dim>
					<dim>5632</dim>
				</port>
			</output>
		</layer>
		<layer id="273" name="self.model.layers.0.mlp.up_proj.weight" type="Const" version="opset1">
			<data element_type="i4" shape="5632, 16, 128" offset="76470469" size="5767168" />
			<output>
				<port id="0" precision="I4">
					<dim>5632</dim>
					<dim>16</dim>
					<dim>128</dim>
				</port>
			</output>
		</layer>
		<layer id="274" name="Convert_92342" type="Convert" version="opset1">
			<data destination_type="f16" />
			<input>
				<port id="0" precision="I4">
					<dim>5632</dim>
					<dim>16</dim>
					<dim>128</dim>
				</port>
			</input>
			<output>
				<port id="1" precision="FP16">
					<dim>5632</dim>
					<dim>16</dim>
					<dim>128</dim>
				</port>
			</output>
		</layer>
		<layer id="275" name="self.model.layers.0.mlp.up_proj.weight/scale" type="Const" version="opset1">
			<data element_type="f16" shape="5632, 16, 1" offset="82237637" size="180224" />
			<output>
				<port id="0" precision="FP16">
					<dim>5632</dim>
					<dim>16</dim>
					<dim>1</dim>
				</port>
			</output>
		</layer>
		<layer id="276" name="self.model.layers.0.mlp.up_proj.weight/fq_weights_1" type="Multiply" version="opset1">
			<data auto_broadcast="numpy" />
			<input>
				<port id="0" precision="FP16">
					<dim>5632</dim>
					<dim>16</dim>
					<dim>128</dim>
				</port>
				<port id="1" precision="FP16">
					<dim>5632</dim>
					<dim>16</dim>
					<dim>1</dim>
				</port>
			</input>
			<output>
				<port id="2" precision="FP16">
					<dim>5632</dim>
					<dim>16</dim>
					<dim>128</dim>
				</port>
			</output>
		</layer>
		<layer id="277" name="Constant_92346" type="Const" version="opset1">
			<data element_type="i64" shape="2" offset="76470453" size="16" />
			<output>
				<port id="0" precision="I64">
					<dim>2</dim>
				</port>
			</output>
		</layer>
		<layer id="278" name="Reshape_92347" type="Reshape" version="opset1">
			<data special_zero="false" />
			<input>
				<port id="0" precision="FP16">
					<dim>5632</dim>
					<dim>16</dim>
					<dim>128</dim>
				</port>
				<port id="1" precision="I64">
					<dim>2</dim>
				</port>
			</input>
			<output>
				<port id="2" precision="FP16">
					<dim>5632</dim>
					<dim>2048</dim>
				</port>
			</output>
		</layer>
		<layer id="279" name="__module.model.layers.0.mlp.up_proj/ov_ext::linear/Convert" type="Convert" version="opset1">
			<data destination_type="f32" />
			<rt_info>
				<attribute name="decompression" version="0" />
			</rt_info>
			<input>
				<port id="0" precision="FP16">
					<dim>5632</dim>
					<dim>2048</dim>
				</port>
			</input>
			<output>
				<port id="1" precision="FP32">
					<dim>5632</dim>
					<dim>2048</dim>
				</port>
			</output>
		</layer>
		<layer id="280" name="__module.model.layers.0.mlp.up_proj/ov_ext::linear/MatMul" type="MatMul" version="opset1">
			<data transpose_a="false" transpose_b="true" />
			<input>
				<port id="0" precision="FP32">
					<dim>-1</dim>
					<dim>-1</dim>
					<dim>2048</dim>
				</port>
				<port id="1" precision="FP32">
					<dim>5632</dim>
					<dim>2048</dim>
				</port>
			</input>
			<output>
				<port id="2" precision="FP32" names="458">
					<dim>-1</dim>
					<dim>-1</dim>
					<dim>5632</dim>
				</port>
			</output>
		</layer>
		<layer id="281" name="__module.model.layers.0.mlp/aten::mul/Multiply" type="Multiply" version="opset1">
			<data auto_broadcast="numpy" />
			<input>
				<port id="0" precision="FP32">
					<dim>-1</dim>
					<dim>-1</dim>
					<dim>5632</dim>
				</port>
				<port id="1" precision="FP32">
					<dim>-1</dim>
					<dim>-1</dim>
					<dim>5632</dim>
				</port>
			</input>
			<output>
				<port id="2" precision="FP32" names="459">
					<dim>-1</dim>
					<dim>-1</dim>
					<dim>5632</dim>
				</port>
			</output>
		</layer>
		<layer id="282" name="self.model.layers.0.mlp.down_proj.weight" type="Const" version="opset1">
			<data element_type="i4" shape="2048, 44, 128" offset="82417861" size="5767168" />
			<output>
				<port id="0" precision="I4">
					<dim>2048</dim>
					<dim>44</dim>
					<dim>128</dim>
				</port>
			</output>
		</layer>
		<layer id="283" name="Convert_101834" type="Convert" version="opset1">
			<data destination_type="f16" />
			<input>
				<port id="0" precision="I4">
					<dim>2048</dim>
					<dim>44</dim>
					<dim>128</dim>
				</port>
			</input>
			<output>
				<port id="1" precision="FP16">
					<dim>2048</dim>
					<dim>44</dim>
					<dim>128</dim>
				</port>
			</output>
		</layer>
		<layer id="284" name="self.model.layers.0.mlp.down_proj.weight/scale" type="Const" version="opset1">
			<data element_type="f16" shape="2048, 44, 1" offset="88185029" size="180224" />
			<output>
				<port id="0" precision="FP16">
					<dim>2048</dim>
					<dim>44</dim>
					<dim>1</dim>
				</port>
			</output>
		</layer>
		<layer id="285" name="self.model.layers.0.mlp.down_proj.weight/fq_weights_1" type="Multiply" version="opset1">
			<data auto_broadcast="numpy" />
			<input>
				<port id="0" precision="FP16">
					<dim>2048</dim>
					<dim>44</dim>
					<dim>128</dim>
				</port>
				<port id="1" precision="FP16">
					<dim>2048</dim>
					<dim>44</dim>
					<dim>1</dim>
				</port>
			</input>
			<output>
				<port id="2" precision="FP16">
					<dim>2048</dim>
					<dim>44</dim>
					<dim>128</dim>
				</port>
			</output>
		</layer>
		<layer id="286" name="Constant_101838" type="Const" version="opset1">
			<data element_type="i64" shape="2" offset="88365253" size="16" />
			<output>
				<port id="0" precision="I64">
					<dim>2</dim>
				</port>
			</output>
		</layer>
		<layer id="287" name="Reshape_101839" type="Reshape" version="opset1">
			<data special_zero="false" />
			<input>
				<port id="0" precision="FP16">
					<dim>2048</dim>
					<dim>44</dim>
					<dim>128</dim>
				</port>
				<port id="1" precision="I64">
					<dim>2</dim>
				</port>
			</input>
			<output>
				<port id="2" precision="FP16">
					<dim>2048</dim>
					<dim>5632</dim>
				</port>
			</output>
		</layer>
		<layer id="288" name="__module.model.layers.0.mlp.down_proj/ov_ext::linear/Convert" type="Convert" version="opset1">
			<data destination_type="f32" />
			<rt_info>
				<attribute name="decompression" version="0" />
			</rt_info>
			<input>
				<port id="0" precision="FP16">
					<dim>2048</dim>
					<dim>5632</dim>
				</port>
			</input>
			<output>
				<port id="1" precision="FP32">
					<dim>2048</dim>
					<dim>5632</dim>
				</port>
			</output>
		</layer>
		<layer id="289" name="__module.model.layers.0.mlp.down_proj/ov_ext::linear/MatMul" type="MatMul" version="opset1">
			<data transpose_a="false" transpose_b="true" />
			<input>
				<port id="0" precision="FP32">
					<dim>-1</dim>
					<dim>-1</dim>
					<dim>5632</dim>
				</port>
				<port id="1" precision="FP32">
					<dim>2048</dim>
					<dim>5632</dim>
				</port>
			</input>
			<output>
				<port id="2" precision="FP32" names="461,hidden_states.27">
					<dim>-1</dim>
					<dim>-1</dim>
					<dim>2048</dim>
				</port>
			</output>
		</layer>
		<layer id="290" name="__module.model.layers.0/aten::add/Add_1" type="Add" version="opset1">
			<data auto_broadcast="numpy" />
			<input>
				<port id="0" precision="FP32">
					<dim>-1</dim>
					<dim>-1</dim>
					<dim>2048</dim>
				</port>
				<port id="1" precision="FP32">
					<dim>-1</dim>
					<dim>-1</dim>
					<dim>2048</dim>
				</port>
			</input>
			<output>
				<port id="2" precision="FP32" names="462,464,472,483,hidden_states.29,hidden_states.31">
					<dim>-1</dim>
					<dim>-1</dim>
					<dim>2048</dim>
				</port>
			</output>
		</layer>
		<layer id="291" name="Constant_56714" type="Const" version="opset1">
			<data element_type="f32" shape="1, 1, 2048" offset="88365269" size="8192" />
			<output>
				<port id="0" precision="FP32">
					<dim>1</dim>
					<dim>1</dim>
					<dim>2048</dim>
				</port>
			</output>
		</layer>
		<layer id="292" name="Constant_56713" type="Const" version="opset1">
			<data element_type="f32" shape="1, 1, 1" offset="65648412" size="4" />
			<output>
				<port id="0" precision="FP32">
					<dim>1</dim>
					<dim>1</dim>
					<dim>1</dim>
				</port>
			</output>
		</layer>
		<layer id="293" name="Constant_56711" type="Const" version="opset1">
			<data element_type="f32" shape="1, 1, 1" offset="65648416" size="4" />
			<output>
				<port id="0" precision="FP32">
					<dim>1</dim>
					<dim>1</dim>
					<dim>1</dim>
				</port>
			</output>
		</layer>
		<layer id="294" name="__module.model.layers.1.input_layernorm/aten::pow/Power" type="Power" version="opset1">
			<data auto_broadcast="numpy" />
			<input>
				<port id="0" precision="FP32">
					<dim>-1</dim>
					<dim>-1</dim>
					<dim>2048</dim>
				</port>
				<port id="1" precision="FP32">
					<dim>1</dim>
					<dim>1</dim>
					<dim>1</dim>
				</port>
			</input>
			<output>
				<port id="2" precision="FP32" names="473">
					<dim>-1</dim>
					<dim>-1</dim>
					<dim>2048</dim>
				</port>
			</output>
		</layer>
		<layer id="295" name="Constant_1479" type="Const" version="opset1">
			<data element_type="i64" shape="1" offset="65648420" size="8" />
			<output>
				<port id="0" precision="I64" names="474">
					<dim>1</dim>
				</port>
			</output>
		</layer>
		<layer id="296" name="__module.model.layers.1.input_layernorm/aten::mean/ReduceMean" type="ReduceMean" version="opset1">
			<data keep_dims="true" />
			<input>
				<port id="0" precision="FP32">
					<dim>-1</dim>
					<dim>-1</dim>
					<dim>2048</dim>
				</port>
				<port id="1" precision="I64">
					<dim>1</dim>
				</port>
			</input>
			<output>
				<port id="2" precision="FP32" names="475,variance.5">
					<dim>-1</dim>
					<dim>-1</dim>
					<dim>1</dim>
				</port>
			</output>
		</layer>
		<layer id="297" name="Constant_56712" type="Const" version="opset1">
			<data element_type="f32" shape="1, 1, 1" offset="65648428" size="4" />
			<output>
				<port id="0" precision="FP32">
					<dim>1</dim>
					<dim>1</dim>
					<dim>1</dim>
				</port>
			</output>
		</layer>
		<layer id="298" name="__module.model.layers.1.input_layernorm/aten::add/Add" type="Add" version="opset1">
			<data auto_broadcast="numpy" />
			<input>
				<port id="0" precision="FP32">
					<dim>-1</dim>
					<dim>-1</dim>
					<dim>1</dim>
				</port>
				<port id="1" precision="FP32">
					<dim>1</dim>
					<dim>1</dim>
					<dim>1</dim>
				</port>
			</input>
			<output>
				<port id="2" precision="FP32" names="476">
					<dim>-1</dim>
					<dim>-1</dim>
					<dim>1</dim>
				</port>
			</output>
		</layer>
		<layer id="299" name="__module.model.layers.1.input_layernorm/aten::rsqrt/Sqrt" type="Sqrt" version="opset1">
			<input>
				<port id="0" precision="FP32">
					<dim>-1</dim>
					<dim>-1</dim>
					<dim>1</dim>
				</port>
			</input>
			<output>
				<port id="1" precision="FP32">
					<dim>-1</dim>
					<dim>-1</dim>
					<dim>1</dim>
				</port>
			</output>
		</layer>
		<layer id="300" name="__module.model.layers.1.input_layernorm/aten::rsqrt/Divide" type="Divide" version="opset1">
			<data auto_broadcast="numpy" m_pythondiv="true" />
			<input>
				<port id="0" precision="FP32">
					<dim>1</dim>
					<dim>1</dim>
					<dim>1</dim>
				</port>
				<port id="1" precision="FP32">
					<dim>-1</dim>
					<dim>-1</dim>
					<dim>1</dim>
				</port>
			</input>
			<output>
				<port id="2" precision="FP32" names="477">
					<dim>-1</dim>
					<dim>-1</dim>
					<dim>1</dim>
				</port>
			</output>
		</layer>
		<layer id="301" name="__module.model.layers.1.input_layernorm/aten::mul/Multiply" type="Multiply" version="opset1">
			<data auto_broadcast="numpy" />
			<input>
				<port id="0" precision="FP32">
					<dim>-1</dim>
					<dim>-1</dim>
					<dim>2048</dim>
				</port>
				<port id="1" precision="FP32">
					<dim>-1</dim>
					<dim>-1</dim>
					<dim>1</dim>
				</port>
			</input>
			<output>
				<port id="2" precision="FP32" names="478,479,hidden_states.33,hidden_states.35">
					<dim>-1</dim>
					<dim>-1</dim>
					<dim>2048</dim>
				</port>
			</output>
		</layer>
		<layer id="302" name="__module.model.layers.1.input_layernorm/aten::mul/Multiply_1" type="Multiply" version="opset1">
			<data auto_broadcast="numpy" />
			<input>
				<port id="0" precision="FP32">
					<dim>1</dim>
					<dim>1</dim>
					<dim>2048</dim>
				</port>
				<port id="1" precision="FP32">
					<dim>-1</dim>
					<dim>-1</dim>
					<dim>2048</dim>
				</port>
			</input>
			<output>
				<port id="2" precision="FP32" names="480,482,hidden_states.37">
					<dim>-1</dim>
					<dim>-1</dim>
					<dim>2048</dim>
				</port>
			</output>
		</layer>
		<layer id="303" name="self.model.layers.1.self_attn.q_proj.weight" type="Const" version="opset1">
			<data element_type="i4" shape="2048, 16, 128" offset="88373461" size="2097152" />
			<output>
				<port id="0" precision="I4">
					<dim>2048</dim>
					<dim>16</dim>
					<dim>128</dim>
				</port>
			</output>
		</layer>
		<layer id="304" name="Convert_415070" type="Convert" version="opset1">
			<data destination_type="f16" />
			<input>
				<port id="0" precision="I4">
					<dim>2048</dim>
					<dim>16</dim>
					<dim>128</dim>
				</port>
			</input>
			<output>
				<port id="1" precision="FP16">
					<dim>2048</dim>
					<dim>16</dim>
					<dim>128</dim>
				</port>
			</output>
		</layer>
		<layer id="305" name="self.model.layers.1.self_attn.q_proj.weight/scale" type="Const" version="opset1">
			<data element_type="f16" shape="2048, 16, 1" offset="90470613" size="65536" />
			<output>
				<port id="0" precision="FP16">
					<dim>2048</dim>
					<dim>16</dim>
					<dim>1</dim>
				</port>
			</output>
		</layer>
		<layer id="306" name="self.model.layers.1.self_attn.q_proj.weight/fq_weights_1" type="Multiply" version="opset1">
			<data auto_broadcast="numpy" />
			<input>
				<port id="0" precision="FP16">
					<dim>2048</dim>
					<dim>16</dim>
					<dim>128</dim>
				</port>
				<port id="1" precision="FP16">
					<dim>2048</dim>
					<dim>16</dim>
					<dim>1</dim>
				</port>
			</input>
			<output>
				<port id="2" precision="FP16">
					<dim>2048</dim>
					<dim>16</dim>
					<dim>128</dim>
				</port>
			</output>
		</layer>
		<layer id="307" name="Constant_415074" type="Const" version="opset1">
			<data element_type="i64" shape="2" offset="67811120" size="16" />
			<output>
				<port id="0" precision="I64">
					<dim>2</dim>
				</port>
			</output>
		</layer>
		<layer id="308" name="Reshape_415075" type="Reshape" version="opset1">
			<data special_zero="false" />
			<input>
				<port id="0" precision="FP16">
					<dim>2048</dim>
					<dim>16</dim>
					<dim>128</dim>
				</port>
				<port id="1" precision="I64">
					<dim>2</dim>
				</port>
			</input>
			<output>
				<port id="2" precision="FP16">
					<dim>2048</dim>
					<dim>2048</dim>
				</port>
			</output>
		</layer>
		<layer id="309" name="__module.model.layers.1.self_attn.q_proj/ov_ext::linear/Convert" type="Convert" version="opset1">
			<data destination_type="f32" />
			<rt_info>
				<attribute name="decompression" version="0" />
			</rt_info>
			<input>
				<port id="0" precision="FP16">
					<dim>2048</dim>
					<dim>2048</dim>
				</port>
			</input>
			<output>
				<port id="1" precision="FP32">
					<dim>2048</dim>
					<dim>2048</dim>
				</port>
			</output>
		</layer>
		<layer id="310" name="__module.model.layers.1.self_attn.q_proj/ov_ext::linear/MatMul" type="MatMul" version="opset1">
			<data transpose_a="false" transpose_b="true" />
			<input>
				<port id="0" precision="FP32">
					<dim>-1</dim>
					<dim>-1</dim>
					<dim>2048</dim>
				</port>
				<port id="1" precision="FP32">
					<dim>2048</dim>
					<dim>2048</dim>
				</port>
			</input>
			<output>
				<port id="2" precision="FP32" names="491">
					<dim>-1</dim>
					<dim>-1</dim>
					<dim>2048</dim>
				</port>
			</output>
		</layer>
		<layer id="311" name="Constant_63462" type="Const" version="opset1">
			<data element_type="i64" shape="4" offset="67811136" size="32" />
			<output>
				<port id="0" precision="I64">
					<dim>4</dim>
				</port>
			</output>
		</layer>
		<layer id="312" name="__module.model.layers.1.self_attn/aten::view/Reshape" type="Reshape" version="opset1">
			<data special_zero="true" />
			<input>
				<port id="0" precision="FP32">
					<dim>-1</dim>
					<dim>-1</dim>
					<dim>2048</dim>
				</port>
				<port id="1" precision="I64">
					<dim>4</dim>
				</port>
			</input>
			<output>
				<port id="2" precision="FP32" names="493">
					<dim>-1</dim>
					<dim>-1</dim>
					<dim>32</dim>
					<dim>64</dim>
				</port>
			</output>
		</layer>
		<layer id="313" name="__module.model.layers.1.self_attn/aten::transpose/Constant" type="Const" version="opset1">
			<data element_type="i32" shape="4" offset="67811168" size="16" />
			<output>
				<port id="0" precision="I32">
					<dim>4</dim>
				</port>
			</output>
		</layer>
		<layer id="314" name="__module.model.layers.1.self_attn/aten::transpose/Transpose" type="Transpose" version="opset1">
			<input>
				<port id="0" precision="FP32">
					<dim>-1</dim>
					<dim>-1</dim>
					<dim>32</dim>
					<dim>64</dim>
				</port>
				<port id="1" precision="I32">
					<dim>4</dim>
				</port>
			</input>
			<output>
				<port id="2" precision="FP32" names="494,q.3">
					<dim>-1</dim>
					<dim>32</dim>
					<dim>-1</dim>
					<dim>64</dim>
				</port>
			</output>
		</layer>
		<layer id="315" name="__module.model.layers.1.self_attn/aten::mul/Multiply" type="Multiply" version="opset1">
			<data auto_broadcast="numpy" />
			<input>
				<port id="0" precision="FP32">
					<dim>-1</dim>
					<dim>32</dim>
					<dim>-1</dim>
					<dim>64</dim>
				</port>
				<port id="1" precision="FP32">
					<dim>-1</dim>
					<dim>1</dim>
					<dim>-1</dim>
					<dim>64</dim>
				</port>
			</input>
			<output>
				<port id="2" precision="FP32" names="507">
					<dim>-1</dim>
					<dim>32</dim>
					<dim>-1</dim>
					<dim>64</dim>
				</port>
			</output>
		</layer>
		<layer id="316" name="Constant_1781" type="Const" version="opset1">
			<data element_type="i64" shape="1" offset="67811332" size="8" />
			<output>
				<port id="0" precision="I64">
					<dim>1</dim>
				</port>
			</output>
		</layer>
		<layer id="317" name="Constant_1783" type="Const" version="opset1">
			<data element_type="i64" shape="1" offset="67811340" size="8" />
			<output>
				<port id="0" precision="I64">
					<dim>1</dim>
				</port>
			</output>
		</layer>
		<layer id="318" name="Constant_1785" type="Const" version="opset1">
			<data element_type="i64" shape="1" offset="67811312" size="8" />
			<output>
				<port id="0" precision="I64">
					<dim>1</dim>
				</port>
			</output>
		</layer>
		<layer id="319" name="Constant_1737" type="Const" version="opset1">
			<data element_type="i64" shape="1" offset="67811348" size="8" />
			<output>
				<port id="0" precision="I64">
					<dim>1</dim>
				</port>
			</output>
		</layer>
		<layer id="320" name="__module.model.layers.1.self_attn/aten::slice/Slice" type="Slice" version="opset8">
			<input>
				<port id="0" precision="FP32">
					<dim>-1</dim>
					<dim>32</dim>
					<dim>-1</dim>
					<dim>64</dim>
				</port>
				<port id="1" precision="I64">
					<dim>1</dim>
				</port>
				<port id="2" precision="I64">
					<dim>1</dim>
				</port>
				<port id="3" precision="I64">
					<dim>1</dim>
				</port>
				<port id="4" precision="I64">
					<dim>1</dim>
				</port>
			</input>
			<output>
				<port id="5" precision="FP32" names="517,x2.5">
					<dim>-1</dim>
					<dim>32</dim>
					<dim>-1</dim>
					<dim>32</dim>
				</port>
			</output>
		</layer>
		<layer id="321" name="__module.model.layers.1.self_attn/aten::neg/Constant" type="Const" version="opset1">
			<data element_type="i32" shape="" offset="67811356" size="4" />
			<output>
				<port id="0" precision="I32" />
			</output>
		</layer>
		<layer id="322" name="__module.model.layers.1.self_attn/aten::neg/ConvertLike" type="Convert" version="opset1">
			<data destination_type="f32" />
			<input>
				<port id="0" precision="I32" />
			</input>
			<output>
				<port id="1" precision="FP32" />
			</output>
		</layer>
		<layer id="323" name="__module.model.layers.1.self_attn/aten::neg/Multiply" type="Multiply" version="opset1">
			<data auto_broadcast="numpy" />
			<input>
				<port id="0" precision="FP32">
					<dim>-1</dim>
					<dim>32</dim>
					<dim>-1</dim>
					<dim>32</dim>
				</port>
				<port id="1" precision="FP32" />
			</input>
			<output>
				<port id="2" precision="FP32" names="518">
					<dim>-1</dim>
					<dim>32</dim>
					<dim>-1</dim>
					<dim>32</dim>
				</port>
			</output>
		</layer>
		<layer id="324" name="Constant_1678" type="Const" version="opset1">
			<data element_type="i64" shape="1" offset="4" size="8" />
			<output>
				<port id="0" precision="I64">
					<dim>1</dim>
				</port>
			</output>
		</layer>
		<layer id="325" name="Constant_1722" type="Const" version="opset1">
			<data element_type="i64" shape="1" offset="67811332" size="8" />
			<output>
				<port id="0" precision="I64">
					<dim>1</dim>
				</port>
			</output>
		</layer>
		<layer id="326" name="Constant_1724" type="Const" version="opset1">
			<data element_type="i64" shape="1" offset="67811312" size="8" />
			<output>
				<port id="0" precision="I64">
					<dim>1</dim>
				</port>
			</output>
		</layer>
		<layer id="327" name="Constant_1676" type="Const" version="opset1">
			<data element_type="i64" shape="1" offset="67811348" size="8" />
			<output>
				<port id="0" precision="I64">
					<dim>1</dim>
				</port>
			</output>
		</layer>
		<layer id="328" name="__module.model.layers.1.self_attn/aten::slice/Slice_1" type="Slice" version="opset8">
			<input>
				<port id="0" precision="FP32">
					<dim>-1</dim>
					<dim>32</dim>
					<dim>-1</dim>
					<dim>64</dim>
				</port>
				<port id="1" precision="I64">
					<dim>1</dim>
				</port>
				<port id="2" precision="I64">
					<dim>1</dim>
				</port>
				<port id="3" precision="I64">
					<dim>1</dim>
				</port>
				<port id="4" precision="I64">
					<dim>1</dim>
				</port>
			</input>
			<output>
				<port id="5" precision="FP32" names="512,x1.5">
					<dim>-1</dim>
					<dim>32</dim>
					<dim>-1</dim>
					<dim>32</dim>
				</port>
			</output>
		</layer>
		<layer id="329" name="__module.model.layers.1.self_attn/aten::cat/Concat" type="Concat" version="opset1">
			<data axis="-1" />
			<input>
				<port id="0" precision="FP32">
					<dim>-1</dim>
					<dim>32</dim>
					<dim>-1</dim>
					<dim>32</dim>
				</port>
				<port id="1" precision="FP32">
					<dim>-1</dim>
					<dim>32</dim>
					<dim>-1</dim>
					<dim>32</dim>
				</port>
			</input>
			<output>
				<port id="2" precision="FP32" names="520">
					<dim>-1</dim>
					<dim>32</dim>
					<dim>-1</dim>
					<dim>64</dim>
				</port>
			</output>
		</layer>
		<layer id="330" name="__module.model.layers.1.self_attn/aten::mul/Multiply_1" type="Multiply" version="opset1">
			<data auto_broadcast="numpy" />
			<input>
				<port id="0" precision="FP32">
					<dim>-1</dim>
					<dim>32</dim>
					<dim>-1</dim>
					<dim>64</dim>
				</port>
				<port id="1" precision="FP32">
					<dim>-1</dim>
					<dim>1</dim>
					<dim>-1</dim>
					<dim>64</dim>
				</port>
			</input>
			<output>
				<port id="2" precision="FP32" names="521">
					<dim>-1</dim>
					<dim>32</dim>
					<dim>-1</dim>
					<dim>64</dim>
				</port>
			</output>
		</layer>
		<layer id="331" name="__module.model.layers.1.self_attn/aten::add/Add" type="Add" version="opset1">
			<data auto_broadcast="numpy" />
			<input>
				<port id="0" precision="FP32">
					<dim>-1</dim>
					<dim>32</dim>
					<dim>-1</dim>
					<dim>64</dim>
				</port>
				<port id="1" precision="FP32">
					<dim>-1</dim>
					<dim>32</dim>
					<dim>-1</dim>
					<dim>64</dim>
				</port>
			</input>
			<output>
				<port id="2" precision="FP32" names="522,query.5">
					<dim>-1</dim>
					<dim>32</dim>
					<dim>-1</dim>
					<dim>64</dim>
				</port>
			</output>
		</layer>
		<layer id="332" name="Constant_66026" type="Const" version="opset1">
			<data element_type="f32" shape="" offset="0" size="4" />
			<output>
				<port id="0" precision="FP32" />
			</output>
		</layer>
		<layer id="333" name="Constant_66019" type="Const" version="opset1">
			<data element_type="i64" shape="1" offset="12" size="8" />
			<output>
				<port id="0" precision="I64">
					<dim>1</dim>
				</port>
			</output>
		</layer>
		<layer id="334" name="Constant_66021" type="Const" version="opset1">
			<data element_type="i64" shape="1" offset="4" size="8" />
			<output>
				<port id="0" precision="I64">
					<dim>1</dim>
				</port>
			</output>
		</layer>
		<layer id="335" name="Constant_66023" type="Const" version="opset1">
			<data element_type="i64" shape="1" offset="20" size="8" />
			<output>
				<port id="0" precision="I64">
					<dim>1</dim>
				</port>
			</output>
		</layer>
		<layer id="336" name="Concat_66024" type="Concat" version="opset1">
			<data axis="0" />
			<input>
				<port id="0" precision="I64">
					<dim>1</dim>
				</port>
				<port id="1" precision="I64">
					<dim>1</dim>
				</port>
				<port id="2" precision="I64">
					<dim>1</dim>
				</port>
				<port id="3" precision="I64">
					<dim>1</dim>
				</port>
			</input>
			<output>
				<port id="4" precision="I64">
					<dim>4</dim>
				</port>
			</output>
		</layer>
		<layer id="337" name="Broadcast_66027" type="Broadcast" version="opset3">
			<data mode="numpy" />
			<input>
				<port id="0" precision="FP32" />
				<port id="1" precision="I64">
					<dim>4</dim>
				</port>
			</input>
			<output>
				<port id="2" precision="FP32">
					<dim>-1</dim>
					<dim>4</dim>
					<dim>0</dim>
					<dim>64</dim>
				</port>
			</output>
		</layer>
		<layer id="338" name="ReadValue_65494" type="ReadValue" version="opset6">
			<data variable_id="past_key_values.1.keypresent.1.key" variable_type="f32" variable_shape="?,4,?,64" />
			<input>
				<port id="0" precision="FP32">
					<dim>-1</dim>
					<dim>4</dim>
					<dim>0</dim>
					<dim>64</dim>
				</port>
			</input>
			<output>
				<port id="1" precision="FP32" names="past_key_values.1.key">
					<dim>-1</dim>
					<dim>4</dim>
					<dim>-1</dim>
					<dim>64</dim>
				</port>
			</output>
		</layer>
		<layer id="339" name="Constant_64979" type="Const" version="opset1">
			<data element_type="i64" shape="" offset="4" size="8" />
			<output>
				<port id="0" precision="I64" />
			</output>
		</layer>
		<layer id="340" name="Gather_64980" type="Gather" version="opset8">
			<data batch_dims="0" />
			<input>
				<port id="0" precision="FP32">
					<dim>-1</dim>
					<dim>4</dim>
					<dim>-1</dim>
					<dim>64</dim>
				</port>
				<port id="1" precision="I32">
					<dim>-1</dim>
				</port>
				<port id="2" precision="I64" />
			</input>
			<output>
				<port id="3" precision="FP32">
					<dim>-1</dim>
					<dim>4</dim>
					<dim>-1</dim>
					<dim>64</dim>
				</port>
			</output>
		</layer>
		<layer id="341" name="self.model.layers.1.self_attn.k_proj.weight" type="Const" version="opset1">
			<data element_type="i4" shape="256, 16, 128" offset="90536149" size="262144" />
			<output>
				<port id="0" precision="I4">
					<dim>256</dim>
					<dim>16</dim>
					<dim>128</dim>
				</port>
			</output>
		</layer>
		<layer id="342" name="Convert_628640" type="Convert" version="opset1">
			<data destination_type="f16" />
			<input>
				<port id="0" precision="I4">
					<dim>256</dim>
					<dim>16</dim>
					<dim>128</dim>
				</port>
			</input>
			<output>
				<port id="1" precision="FP16">
					<dim>256</dim>
					<dim>16</dim>
					<dim>128</dim>
				</port>
			</output>
		</layer>
		<layer id="343" name="self.model.layers.1.self_attn.k_proj.weight/scale" type="Const" version="opset1">
			<data element_type="f16" shape="256, 16, 1" offset="90798293" size="8192" />
			<output>
				<port id="0" precision="FP16">
					<dim>256</dim>
					<dim>16</dim>
					<dim>1</dim>
				</port>
			</output>
		</layer>
		<layer id="344" name="self.model.layers.1.self_attn.k_proj.weight/fq_weights_1" type="Multiply" version="opset1">
			<data auto_broadcast="numpy" />
			<input>
				<port id="0" precision="FP16">
					<dim>256</dim>
					<dim>16</dim>
					<dim>128</dim>
				</port>
				<port id="1" precision="FP16">
					<dim>256</dim>
					<dim>16</dim>
					<dim>1</dim>
				</port>
			</input>
			<output>
				<port id="2" precision="FP16">
					<dim>256</dim>
					<dim>16</dim>
					<dim>128</dim>
				</port>
			</output>
		</layer>
		<layer id="345" name="Constant_628644" type="Const" version="opset1">
			<data element_type="i64" shape="2" offset="68081696" size="16" />
			<output>
				<port id="0" precision="I64">
					<dim>2</dim>
				</port>
			</output>
		</layer>
		<layer id="346" name="Reshape_628645" type="Reshape" version="opset1">
			<data special_zero="false" />
			<input>
				<port id="0" precision="FP16">
					<dim>256</dim>
					<dim>16</dim>
					<dim>128</dim>
				</port>
				<port id="1" precision="I64">
					<dim>2</dim>
				</port>
			</input>
			<output>
				<port id="2" precision="FP16">
					<dim>256</dim>
					<dim>2048</dim>
				</port>
			</output>
		</layer>
		<layer id="347" name="__module.model.layers.1.self_attn.k_proj/ov_ext::linear/Convert" type="Convert" version="opset1">
			<data destination_type="f32" />
			<rt_info>
				<attribute name="decompression" version="0" />
			</rt_info>
			<input>
				<port id="0" precision="FP16">
					<dim>256</dim>
					<dim>2048</dim>
				</port>
			</input>
			<output>
				<port id="1" precision="FP32">
					<dim>256</dim>
					<dim>2048</dim>
				</port>
			</output>
		</layer>
		<layer id="348" name="__module.model.layers.1.self_attn.k_proj/ov_ext::linear/MatMul" type="MatMul" version="opset1">
			<data transpose_a="false" transpose_b="true" />
			<input>
				<port id="0" precision="FP32">
					<dim>-1</dim>
					<dim>-1</dim>
					<dim>2048</dim>
				</port>
				<port id="1" precision="FP32">
					<dim>256</dim>
					<dim>2048</dim>
				</port>
			</input>
			<output>
				<port id="2" precision="FP32" names="496">
					<dim>-1</dim>
					<dim>-1</dim>
					<dim>256</dim>
				</port>
			</output>
		</layer>
		<layer id="349" name="Constant_63463" type="Const" version="opset1">
			<data element_type="i64" shape="4" offset="68081712" size="32" />
			<output>
				<port id="0" precision="I64">
					<dim>4</dim>
				</port>
			</output>
		</layer>
		<layer id="350" name="__module.model.layers.1.self_attn/aten::view/Reshape_1" type="Reshape" version="opset1">
			<data special_zero="true" />
			<input>
				<port id="0" precision="FP32">
					<dim>-1</dim>
					<dim>-1</dim>
					<dim>256</dim>
				</port>
				<port id="1" precision="I64">
					<dim>4</dim>
				</port>
			</input>
			<output>
				<port id="2" precision="FP32" names="498">
					<dim>-1</dim>
					<dim>-1</dim>
					<dim>4</dim>
					<dim>64</dim>
				</port>
			</output>
		</layer>
		<layer id="351" name="__module.model.layers.1.self_attn/aten::transpose/Constant_1" type="Const" version="opset1">
			<data element_type="i32" shape="4" offset="67811168" size="16" />
			<output>
				<port id="0" precision="I32">
					<dim>4</dim>
				</port>
			</output>
		</layer>
		<layer id="352" name="__module.model.layers.1.self_attn/aten::transpose/Transpose_1" type="Transpose" version="opset1">
			<input>
				<port id="0" precision="FP32">
					<dim>-1</dim>
					<dim>-1</dim>
					<dim>4</dim>
					<dim>64</dim>
				</port>
				<port id="1" precision="I32">
					<dim>4</dim>
				</port>
			</input>
			<output>
				<port id="2" precision="FP32" names="499,k.3">
					<dim>-1</dim>
					<dim>4</dim>
					<dim>-1</dim>
					<dim>64</dim>
				</port>
			</output>
		</layer>
		<layer id="353" name="__module.model.layers.1.self_attn/aten::mul/Multiply_2" type="Multiply" version="opset1">
			<data auto_broadcast="numpy" />
			<input>
				<port id="0" precision="FP32">
					<dim>-1</dim>
					<dim>4</dim>
					<dim>-1</dim>
					<dim>64</dim>
				</port>
				<port id="1" precision="FP32">
					<dim>-1</dim>
					<dim>1</dim>
					<dim>-1</dim>
					<dim>64</dim>
				</port>
			</input>
			<output>
				<port id="2" precision="FP32" names="523">
					<dim>-1</dim>
					<dim>4</dim>
					<dim>-1</dim>
					<dim>64</dim>
				</port>
			</output>
		</layer>
		<layer id="354" name="Constant_1924" type="Const" version="opset1">
			<data element_type="i64" shape="1" offset="67811332" size="8" />
			<output>
				<port id="0" precision="I64">
					<dim>1</dim>
				</port>
			</output>
		</layer>
		<layer id="355" name="Constant_1926" type="Const" version="opset1">
			<data element_type="i64" shape="1" offset="67811340" size="8" />
			<output>
				<port id="0" precision="I64">
					<dim>1</dim>
				</port>
			</output>
		</layer>
		<layer id="356" name="Constant_1928" type="Const" version="opset1">
			<data element_type="i64" shape="1" offset="67811312" size="8" />
			<output>
				<port id="0" precision="I64">
					<dim>1</dim>
				</port>
			</output>
		</layer>
		<layer id="357" name="Constant_1880" type="Const" version="opset1">
			<data element_type="i64" shape="1" offset="67811348" size="8" />
			<output>
				<port id="0" precision="I64">
					<dim>1</dim>
				</port>
			</output>
		</layer>
		<layer id="358" name="__module.model.layers.1.self_attn/aten::slice/Slice_2" type="Slice" version="opset8">
			<input>
				<port id="0" precision="FP32">
					<dim>-1</dim>
					<dim>4</dim>
					<dim>-1</dim>
					<dim>64</dim>
				</port>
				<port id="1" precision="I64">
					<dim>1</dim>
				</port>
				<port id="2" precision="I64">
					<dim>1</dim>
				</port>
				<port id="3" precision="I64">
					<dim>1</dim>
				</port>
				<port id="4" precision="I64">
					<dim>1</dim>
				</port>
			</input>
			<output>
				<port id="5" precision="FP32" names="533,x2.7">
					<dim>-1</dim>
					<dim>4</dim>
					<dim>-1</dim>
					<dim>32</dim>
				</port>
			</output>
		</layer>
		<layer id="359" name="__module.model.layers.1.self_attn/aten::neg/Constant_1" type="Const" version="opset1">
			<data element_type="i32" shape="" offset="67811356" size="4" />
			<output>
				<port id="0" precision="I32" />
			</output>
		</layer>
		<layer id="360" name="__module.model.layers.1.self_attn/aten::neg/ConvertLike_1" type="Convert" version="opset1">
			<data destination_type="f32" />
			<input>
				<port id="0" precision="I32" />
			</input>
			<output>
				<port id="1" precision="FP32" />
			</output>
		</layer>
		<layer id="361" name="__module.model.layers.1.self_attn/aten::neg/Multiply_1" type="Multiply" version="opset1">
			<data auto_broadcast="numpy" />
			<input>
				<port id="0" precision="FP32">
					<dim>-1</dim>
					<dim>4</dim>
					<dim>-1</dim>
					<dim>32</dim>
				</port>
				<port id="1" precision="FP32" />
			</input>
			<output>
				<port id="2" precision="FP32" names="534">
					<dim>-1</dim>
					<dim>4</dim>
					<dim>-1</dim>
					<dim>32</dim>
				</port>
			</output>
		</layer>
		<layer id="362" name="Constant_1821" type="Const" version="opset1">
			<data element_type="i64" shape="1" offset="4" size="8" />
			<output>
				<port id="0" precision="I64">
					<dim>1</dim>
				</port>
			</output>
		</layer>
		<layer id="363" name="Constant_1865" type="Const" version="opset1">
			<data element_type="i64" shape="1" offset="67811332" size="8" />
			<output>
				<port id="0" precision="I64">
					<dim>1</dim>
				</port>
			</output>
		</layer>
		<layer id="364" name="Constant_1867" type="Const" version="opset1">
			<data element_type="i64" shape="1" offset="67811312" size="8" />
			<output>
				<port id="0" precision="I64">
					<dim>1</dim>
				</port>
			</output>
		</layer>
		<layer id="365" name="Constant_1819" type="Const" version="opset1">
			<data element_type="i64" shape="1" offset="67811348" size="8" />
			<output>
				<port id="0" precision="I64">
					<dim>1</dim>
				</port>
			</output>
		</layer>
		<layer id="366" name="__module.model.layers.1.self_attn/aten::slice/Slice_3" type="Slice" version="opset8">
			<input>
				<port id="0" precision="FP32">
					<dim>-1</dim>
					<dim>4</dim>
					<dim>-1</dim>
					<dim>64</dim>
				</port>
				<port id="1" precision="I64">
					<dim>1</dim>
				</port>
				<port id="2" precision="I64">
					<dim>1</dim>
				</port>
				<port id="3" precision="I64">
					<dim>1</dim>
				</port>
				<port id="4" precision="I64">
					<dim>1</dim>
				</port>
			</input>
			<output>
				<port id="5" precision="FP32" names="528,x1.7">
					<dim>-1</dim>
					<dim>4</dim>
					<dim>-1</dim>
					<dim>32</dim>
				</port>
			</output>
		</layer>
		<layer id="367" name="__module.model.layers.1.self_attn/aten::cat/Concat_1" type="Concat" version="opset1">
			<data axis="-1" />
			<input>
				<port id="0" precision="FP32">
					<dim>-1</dim>
					<dim>4</dim>
					<dim>-1</dim>
					<dim>32</dim>
				</port>
				<port id="1" precision="FP32">
					<dim>-1</dim>
					<dim>4</dim>
					<dim>-1</dim>
					<dim>32</dim>
				</port>
			</input>
			<output>
				<port id="2" precision="FP32" names="536">
					<dim>-1</dim>
					<dim>4</dim>
					<dim>-1</dim>
					<dim>64</dim>
				</port>
			</output>
		</layer>
		<layer id="368" name="__module.model.layers.1.self_attn/aten::mul/Multiply_3" type="Multiply" version="opset1">
			<data auto_broadcast="numpy" />
			<input>
				<port id="0" precision="FP32">
					<dim>-1</dim>
					<dim>4</dim>
					<dim>-1</dim>
					<dim>64</dim>
				</port>
				<port id="1" precision="FP32">
					<dim>-1</dim>
					<dim>1</dim>
					<dim>-1</dim>
					<dim>64</dim>
				</port>
			</input>
			<output>
				<port id="2" precision="FP32" names="537">
					<dim>-1</dim>
					<dim>4</dim>
					<dim>-1</dim>
					<dim>64</dim>
				</port>
			</output>
		</layer>
		<layer id="369" name="__module.model.layers.1.self_attn/aten::add/Add_1" type="Add" version="opset1">
			<data auto_broadcast="numpy" />
			<input>
				<port id="0" precision="FP32">
					<dim>-1</dim>
					<dim>4</dim>
					<dim>-1</dim>
					<dim>64</dim>
				</port>
				<port id="1" precision="FP32">
					<dim>-1</dim>
					<dim>4</dim>
					<dim>-1</dim>
					<dim>64</dim>
				</port>
			</input>
			<output>
				<port id="2" precision="FP32" names="538,key_states.3">
					<dim>-1</dim>
					<dim>4</dim>
					<dim>-1</dim>
					<dim>64</dim>
				</port>
			</output>
		</layer>
		<layer id="370" name="__module.model.layers.1.self_attn/aten::cat/Concat_2" type="Concat" version="opset1">
			<data axis="-2" />
			<input>
				<port id="0" precision="FP32">
					<dim>-1</dim>
					<dim>4</dim>
					<dim>-1</dim>
					<dim>64</dim>
				</port>
				<port id="1" precision="FP32">
					<dim>-1</dim>
					<dim>4</dim>
					<dim>-1</dim>
					<dim>64</dim>
				</port>
			</input>
			<output>
				<port id="2" precision="FP32" names="548,549,hidden_states.39">
					<dim>-1</dim>
					<dim>4</dim>
					<dim>-1</dim>
					<dim>64</dim>
				</port>
			</output>
		</layer>
		<layer id="371" name="__module.model.layers.1.self_attn/aten::unsqueeze/Unsqueeze_2" type="Unsqueeze" version="opset1">
			<input>
				<port id="0" precision="FP32">
					<dim>-1</dim>
					<dim>4</dim>
					<dim>-1</dim>
					<dim>64</dim>
				</port>
				<port id="1" precision="I64" />
			</input>
			<output>
				<port id="2" precision="FP32" names="550,551,552">
					<dim>-1</dim>
					<dim>4</dim>
					<dim>1</dim>
					<dim>-1</dim>
					<dim>64</dim>
				</port>
			</output>
		</layer>
		<layer id="372" name="__module.model.layers.1.self_attn/aten::expand/Broadcast" type="Broadcast" version="opset3">
			<data mode="bidirectional" />
			<input>
				<port id="0" precision="FP32">
					<dim>-1</dim>
					<dim>4</dim>
					<dim>1</dim>
					<dim>-1</dim>
					<dim>64</dim>
				</port>
				<port id="1" precision="I64">
					<dim>5</dim>
				</port>
			</input>
			<output>
				<port id="2" precision="FP32" names="554,hidden_states.41">
					<dim>-1</dim>
					<dim>4</dim>
					<dim>8</dim>
					<dim>-1</dim>
					<dim>64</dim>
				</port>
			</output>
		</layer>
		<layer id="373" name="Constant_63464" type="Const" version="opset1">
			<data element_type="i64" shape="4" offset="68081776" size="32" />
			<output>
				<port id="0" precision="I64">
					<dim>4</dim>
				</port>
			</output>
		</layer>
		<layer id="374" name="__module.model.layers.1.self_attn/aten::reshape/Reshape" type="Reshape" version="opset1">
			<data special_zero="true" />
			<input>
				<port id="0" precision="FP32">
					<dim>-1</dim>
					<dim>4</dim>
					<dim>8</dim>
					<dim>-1</dim>
					<dim>64</dim>
				</port>
				<port id="1" precision="I64">
					<dim>4</dim>
				</port>
			</input>
			<output>
				<port id="2" precision="FP32" names="558,key.5">
					<dim>-1</dim>
					<dim>32</dim>
					<dim>-1</dim>
					<dim>64</dim>
				</port>
			</output>
		</layer>
		<layer id="375" name="Constant_66014" type="Const" version="opset1">
			<data element_type="f32" shape="" offset="0" size="4" />
			<output>
				<port id="0" precision="FP32" />
			</output>
		</layer>
		<layer id="376" name="Constant_66007" type="Const" version="opset1">
			<data element_type="i64" shape="1" offset="12" size="8" />
			<output>
				<port id="0" precision="I64">
					<dim>1</dim>
				</port>
			</output>
		</layer>
		<layer id="377" name="Constant_66009" type="Const" version="opset1">
			<data element_type="i64" shape="1" offset="4" size="8" />
			<output>
				<port id="0" precision="I64">
					<dim>1</dim>
				</port>
			</output>
		</layer>
		<layer id="378" name="Constant_66011" type="Const" version="opset1">
			<data element_type="i64" shape="1" offset="20" size="8" />
			<output>
				<port id="0" precision="I64">
					<dim>1</dim>
				</port>
			</output>
		</layer>
		<layer id="379" name="Concat_66012" type="Concat" version="opset1">
			<data axis="0" />
			<input>
				<port id="0" precision="I64">
					<dim>1</dim>
				</port>
				<port id="1" precision="I64">
					<dim>1</dim>
				</port>
				<port id="2" precision="I64">
					<dim>1</dim>
				</port>
				<port id="3" precision="I64">
					<dim>1</dim>
				</port>
			</input>
			<output>
				<port id="4" precision="I64">
					<dim>4</dim>
				</port>
			</output>
		</layer>
		<layer id="380" name="Broadcast_66015" type="Broadcast" version="opset3">
			<data mode="numpy" />
			<input>
				<port id="0" precision="FP32" />
				<port id="1" precision="I64">
					<dim>4</dim>
				</port>
			</input>
			<output>
				<port id="2" precision="FP32">
					<dim>-1</dim>
					<dim>4</dim>
					<dim>0</dim>
					<dim>64</dim>
				</port>
			</output>
		</layer>
		<layer id="381" name="ReadValue_65496" type="ReadValue" version="opset6">
			<data variable_id="past_key_values.1.valuepresent.1.value" variable_type="f32" variable_shape="?,4,?,64" />
			<input>
				<port id="0" precision="FP32">
					<dim>-1</dim>
					<dim>4</dim>
					<dim>0</dim>
					<dim>64</dim>
				</port>
			</input>
			<output>
				<port id="1" precision="FP32" names="past_key_values.1.value">
					<dim>-1</dim>
					<dim>4</dim>
					<dim>-1</dim>
					<dim>64</dim>
				</port>
			</output>
		</layer>
		<layer id="382" name="Constant_64982" type="Const" version="opset1">
			<data element_type="i64" shape="" offset="4" size="8" />
			<output>
				<port id="0" precision="I64" />
			</output>
		</layer>
		<layer id="383" name="Gather_64983" type="Gather" version="opset8">
			<data batch_dims="0" />
			<input>
				<port id="0" precision="FP32">
					<dim>-1</dim>
					<dim>4</dim>
					<dim>-1</dim>
					<dim>64</dim>
				</port>
				<port id="1" precision="I32">
					<dim>-1</dim>
				</port>
				<port id="2" precision="I64" />
			</input>
			<output>
				<port id="3" precision="FP32">
					<dim>-1</dim>
					<dim>4</dim>
					<dim>-1</dim>
					<dim>64</dim>
				</port>
			</output>
		</layer>
		<layer id="384" name="self.model.layers.1.self_attn.v_proj.weight" type="Const" version="opset1">
			<data element_type="i4" shape="256, 16, 128" offset="90806485" size="262144" />
			<output>
				<port id="0" precision="I4">
					<dim>256</dim>
					<dim>16</dim>
					<dim>128</dim>
				</port>
			</output>
		</layer>
		<layer id="385" name="Convert_623894" type="Convert" version="opset1">
			<data destination_type="f16" />
			<input>
				<port id="0" precision="I4">
					<dim>256</dim>
					<dim>16</dim>
					<dim>128</dim>
				</port>
			</input>
			<output>
				<port id="1" precision="FP16">
					<dim>256</dim>
					<dim>16</dim>
					<dim>128</dim>
				</port>
			</output>
		</layer>
		<layer id="386" name="self.model.layers.1.self_attn.v_proj.weight/scale" type="Const" version="opset1">
			<data element_type="f16" shape="256, 16, 1" offset="91068629" size="8192" />
			<output>
				<port id="0" precision="FP16">
					<dim>256</dim>
					<dim>16</dim>
					<dim>1</dim>
				</port>
			</output>
		</layer>
		<layer id="387" name="self.model.layers.1.self_attn.v_proj.weight/fq_weights_1" type="Multiply" version="opset1">
			<data auto_broadcast="numpy" />
			<input>
				<port id="0" precision="FP16">
					<dim>256</dim>
					<dim>16</dim>
					<dim>128</dim>
				</port>
				<port id="1" precision="FP16">
					<dim>256</dim>
					<dim>16</dim>
					<dim>1</dim>
				</port>
			</input>
			<output>
				<port id="2" precision="FP16">
					<dim>256</dim>
					<dim>16</dim>
					<dim>128</dim>
				</port>
			</output>
		</layer>
		<layer id="388" name="Constant_623898" type="Const" version="opset1">
			<data element_type="i64" shape="2" offset="68081696" size="16" />
			<output>
				<port id="0" precision="I64">
					<dim>2</dim>
				</port>
			</output>
		</layer>
		<layer id="389" name="Reshape_623899" type="Reshape" version="opset1">
			<data special_zero="false" />
			<input>
				<port id="0" precision="FP16">
					<dim>256</dim>
					<dim>16</dim>
					<dim>128</dim>
				</port>
				<port id="1" precision="I64">
					<dim>2</dim>
				</port>
			</input>
			<output>
				<port id="2" precision="FP16">
					<dim>256</dim>
					<dim>2048</dim>
				</port>
			</output>
		</layer>
		<layer id="390" name="__module.model.layers.1.self_attn.v_proj/ov_ext::linear/Convert" type="Convert" version="opset1">
			<data destination_type="f32" />
			<rt_info>
				<attribute name="decompression" version="0" />
			</rt_info>
			<input>
…
		<edge from-layer="3107" from-port="1" to-layer="3108" to-port="1" />
		<edge from-layer="3108" from-port="2" to-layer="3114" to-port="0" />
		<edge from-layer="3109" from-port="0" to-layer="3113" to-port="1" />
		<edge from-layer="3110" from-port="0" to-layer="3113" to-port="2" />
		<edge from-layer="3111" from-port="0" to-layer="3113" to-port="3" />
		<edge from-layer="3112" from-port="0" to-layer="3113" to-port="4" />
		<edge from-layer="3113" from-port="5" to-layer="3114" to-port="1" />
		<edge from-layer="3114" from-port="2" to-layer="3115" to-port="0" />
		<edge from-layer="3115" from-port="2" to-layer="3116" to-port="1" />
		<edge from-layer="3116" from-port="2" to-layer="3186" to-port="0" />
		<edge from-layer="3117" from-port="0" to-layer="3122" to-port="0" />
		<edge from-layer="3118" from-port="0" to-layer="3121" to-port="1" />
		<edge from-layer="3119" from-port="0" to-layer="3121" to-port="2" />
		<edge from-layer="3120" from-port="0" to-layer="3121" to-port="3" />
		<edge from-layer="3121" from-port="4" to-layer="3122" to-port="1" />
		<edge from-layer="3122" from-port="2" to-layer="3123" to-port="0" />
		<edge from-layer="3123" from-port="1" to-layer="3125" to-port="0" />
		<edge from-layer="3124" from-port="0" to-layer="3125" to-port="2" />
		<edge from-layer="3125" from-port="3" to-layer="3155" to-port="0" />
		<edge from-layer="3126" from-port="0" to-layer="3127" to-port="0" />
		<edge from-layer="3127" from-port="1" to-layer="3129" to-port="0" />
		<edge from-layer="3128" from-port="0" to-layer="3129" to-port="1" />
		<edge from-layer="3129" from-port="2" to-layer="3131" to-port="0" />
		<edge from-layer="3130" from-port="0" to-layer="3131" to-port="1" />
		<edge from-layer="3131" from-port="2" to-layer="3132" to-port="0" />
		<edge from-layer="3132" from-port="1" to-layer="3133" to-port="1" />
		<edge from-layer="3133" from-port="2" to-layer="3135" to-port="0" />
		<edge from-layer="3134" from-port="0" to-layer="3135" to-port="1" />
		<edge from-layer="3135" from-port="2" to-layer="3137" to-port="0" />
		<edge from-layer="3136" from-port="0" to-layer="3137" to-port="1" />
		<edge from-layer="3137" from-port="2" to-layer="3143" to-port="0" />
		<edge from-layer="3137" from-port="2" to-layer="3138" to-port="0" />
		<edge from-layer="3137" from-port="2" to-layer="3151" to-port="0" />
		<edge from-layer="3138" from-port="2" to-layer="3154" to-port="0" />
		<edge from-layer="3139" from-port="0" to-layer="3143" to-port="1" />
		<edge from-layer="3140" from-port="0" to-layer="3143" to-port="2" />
		<edge from-layer="3141" from-port="0" to-layer="3143" to-port="3" />
		<edge from-layer="3142" from-port="0" to-layer="3143" to-port="4" />
		<edge from-layer="3143" from-port="5" to-layer="3146" to-port="0" />
		<edge from-layer="3144" from-port="0" to-layer="3145" to-port="0" />
		<edge from-layer="3145" from-port="1" to-layer="3146" to-port="1" />
		<edge from-layer="3146" from-port="2" to-layer="3152" to-port="0" />
		<edge from-layer="3147" from-port="0" to-layer="3151" to-port="1" />
		<edge from-layer="3148" from-port="0" to-layer="3151" to-port="2" />
		<edge from-layer="3149" from-port="0" to-layer="3151" to-port="3" />
		<edge from-layer="3150" from-port="0" to-layer="3151" to-port="4" />
		<edge from-layer="3151" from-port="5" to-layer="3152" to-port="1" />
		<edge from-layer="3152" from-port="2" to-layer="3153" to-port="0" />
		<edge from-layer="3153" from-port="2" to-layer="3154" to-port="1" />
		<edge from-layer="3154" from-port="2" to-layer="3155" to-port="1" />
		<edge from-layer="3155" from-port="2" to-layer="3156" to-port="0" />
		<edge from-layer="3155" from-port="2" to-layer="3637" to-port="0" />
		<edge from-layer="3156" from-port="2" to-layer="3157" to-port="0" />
		<edge from-layer="3157" from-port="2" to-layer="3159" to-port="0" />
		<edge from-layer="3158" from-port="0" to-layer="3159" to-port="1" />
		<edge from-layer="3159" from-port="2" to-layer="3186" to-port="1" />
		<edge from-layer="3160" from-port="0" to-layer="3165" to-port="0" />
		<edge from-layer="3161" from-port="0" to-layer="3164" to-port="1" />
		<edge from-layer="3162" from-port="0" to-layer="3164" to-port="2" />
		<edge from-layer="3163" from-port="0" to-layer="3164" to-port="3" />
		<edge from-layer="3164" from-port="4" to-layer="3165" to-port="1" />
		<edge from-layer="3165" from-port="2" to-layer="3166" to-port="0" />
		<edge from-layer="3166" from-port="1" to-layer="3168" to-port="0" />
		<edge from-layer="3167" from-port="0" to-layer="3168" to-port="2" />
		<edge from-layer="3168" from-port="3" to-layer="3181" to-port="0" />
		<edge from-layer="3169" from-port="0" to-layer="3170" to-port="0" />
		<edge from-layer="3170" from-port="1" to-layer="3172" to-port="0" />
		<edge from-layer="3171" from-port="0" to-layer="3172" to-port="1" />
		<edge from-layer="3172" from-port="2" to-layer="3174" to-port="0" />
		<edge from-layer="3173" from-port="0" to-layer="3174" to-port="1" />
		<edge from-layer="3174" from-port="2" to-layer="3175" to-port="0" />
		<edge from-layer="3175" from-port="1" to-layer="3176" to-port="1" />
		<edge from-layer="3176" from-port="2" to-layer="3178" to-port="0" />
		<edge from-layer="3177" from-port="0" to-layer="3178" to-port="1" />
		<edge from-layer="3178" from-port="2" to-layer="3180" to-port="0" />
		<edge from-layer="3179" from-port="0" to-layer="3180" to-port="1" />
		<edge from-layer="3180" from-port="2" to-layer="3181" to-port="1" />
		<edge from-layer="3181" from-port="2" to-layer="3182" to-port="0" />
		<edge from-layer="3181" from-port="2" to-layer="3636" to-port="0" />
		<edge from-layer="3182" from-port="2" to-layer="3183" to-port="0" />
		<edge from-layer="3183" from-port="2" to-layer="3185" to-port="0" />
		<edge from-layer="3184" from-port="0" to-layer="3185" to-port="1" />
		<edge from-layer="3185" from-port="2" to-layer="3186" to-port="2" />
		<edge from-layer="3186" from-port="5" to-layer="3188" to-port="0" />
		<edge from-layer="3187" from-port="0" to-layer="3188" to-port="1" />
		<edge from-layer="3188" from-port="2" to-layer="3190" to-port="0" />
		<edge from-layer="3189" from-port="0" to-layer="3190" to-port="1" />
		<edge from-layer="3190" from-port="2" to-layer="3198" to-port="0" />
		<edge from-layer="3191" from-port="0" to-layer="3192" to-port="0" />
		<edge from-layer="3192" from-port="1" to-layer="3194" to-port="0" />
		<edge from-layer="3193" from-port="0" to-layer="3194" to-port="1" />
		<edge from-layer="3194" from-port="2" to-layer="3196" to-port="0" />
		<edge from-layer="3195" from-port="0" to-layer="3196" to-port="1" />
		<edge from-layer="3196" from-port="2" to-layer="3197" to-port="0" />
		<edge from-layer="3197" from-port="1" to-layer="3198" to-port="1" />
		<edge from-layer="3198" from-port="2" to-layer="3199" to-port="1" />
		<edge from-layer="3199" from-port="2" to-layer="3238" to-port="0" />
		<edge from-layer="3199" from-port="2" to-layer="3203" to-port="0" />
		<edge from-layer="3199" from-port="2" to-layer="3210" to-port="0" />
		<edge from-layer="3200" from-port="0" to-layer="3211" to-port="0" />
		<edge from-layer="3201" from-port="0" to-layer="3209" to-port="0" />
		<edge from-layer="3202" from-port="0" to-layer="3203" to-port="1" />
		<edge from-layer="3203" from-port="2" to-layer="3205" to-port="0" />
		<edge from-layer="3204" from-port="0" to-layer="3205" to-port="1" />
		<edge from-layer="3205" from-port="2" to-layer="3207" to-port="0" />
		<edge from-layer="3206" from-port="0" to-layer="3207" to-port="1" />
		<edge from-layer="3207" from-port="2" to-layer="3208" to-port="0" />
		<edge from-layer="3208" from-port="1" to-layer="3209" to-port="1" />
		<edge from-layer="3209" from-port="2" to-layer="3210" to-port="1" />
		<edge from-layer="3210" from-port="2" to-layer="3211" to-port="1" />
		<edge from-layer="3211" from-port="2" to-layer="3228" to-port="0" />
		<edge from-layer="3211" from-port="2" to-layer="3219" to-port="0" />
		<edge from-layer="3212" from-port="0" to-layer="3213" to-port="0" />
		<edge from-layer="3213" from-port="1" to-layer="3215" to-port="0" />
		<edge from-layer="3214" from-port="0" to-layer="3215" to-port="1" />
		<edge from-layer="3215" from-port="2" to-layer="3217" to-port="0" />
		<edge from-layer="3216" from-port="0" to-layer="3217" to-port="1" />
		<edge from-layer="3217" from-port="2" to-layer="3218" to-port="0" />
		<edge from-layer="3218" from-port="1" to-layer="3219" to-port="1" />
		<edge from-layer="3219" from-port="2" to-layer="3220" to-port="0" />
		<edge from-layer="3220" from-port="1" to-layer="3229" to-port="0" />
		<edge from-layer="3221" from-port="0" to-layer="3222" to-port="0" />
		<edge from-layer="3222" from-port="1" to-layer="3224" to-port="0" />
		<edge from-layer="3223" from-port="0" to-layer="3224" to-port="1" />
		<edge from-layer="3224" from-port="2" to-layer="3226" to-port="0" />
		<edge from-layer="3225" from-port="0" to-layer="3226" to-port="1" />
		<edge from-layer="3226" from-port="2" to-layer="3227" to-port="0" />
		<edge from-layer="3227" from-port="1" to-layer="3228" to-port="1" />
		<edge from-layer="3228" from-port="2" to-layer="3229" to-port="1" />
		<edge from-layer="3229" from-port="2" to-layer="3237" to-port="0" />
		<edge from-layer="3230" from-port="0" to-layer="3231" to-port="0" />
		<edge from-layer="3231" from-port="1" to-layer="3233" to-port="0" />
		<edge from-layer="3232" from-port="0" to-layer="3233" to-port="1" />
		<edge from-layer="3233" from-port="2" to-layer="3235" to-port="0" />
		<edge from-layer="3234" from-port="0" to-layer="3235" to-port="1" />
		<edge from-layer="3235" from-port="2" to-layer="3236" to-port="0" />
		<edge from-layer="3236" from-port="1" to-layer="3237" to-port="1" />
		<edge from-layer="3237" from-port="2" to-layer="3238" to-port="1" />
		<edge from-layer="3238" from-port="2" to-layer="3242" to-port="0" />
		<edge from-layer="3238" from-port="2" to-layer="3362" to-port="0" />
		<edge from-layer="3238" from-port="2" to-layer="3249" to-port="0" />
		<edge from-layer="3239" from-port="0" to-layer="3250" to-port="0" />
		<edge from-layer="3240" from-port="0" to-layer="3248" to-port="0" />
		<edge from-layer="3241" from-port="0" to-layer="3242" to-port="1" />
		<edge from-layer="3242" from-port="2" to-layer="3244" to-port="0" />
		<edge from-layer="3243" from-port="0" to-layer="3244" to-port="1" />
		<edge from-layer="3244" from-port="2" to-layer="3246" to-port="0" />
		<edge from-layer="3245" from-port="0" to-layer="3246" to-port="1" />
		<edge from-layer="3246" from-port="2" to-layer="3247" to-port="0" />
		<edge from-layer="3247" from-port="1" to-layer="3248" to-port="1" />
		<edge from-layer="3248" from-port="2" to-layer="3249" to-port="1" />
		<edge from-layer="3249" from-port="2" to-layer="3250" to-port="1" />
		<edge from-layer="3250" from-port="2" to-layer="3339" to-port="0" />
		<edge from-layer="3250" from-port="2" to-layer="3258" to-port="0" />
		<edge from-layer="3250" from-port="2" to-layer="3296" to-port="0" />
		<edge from-layer="3251" from-port="0" to-layer="3252" to-port="0" />
		<edge from-layer="3252" from-port="1" to-layer="3254" to-port="0" />
		<edge from-layer="3253" from-port="0" to-layer="3254" to-port="1" />
		<edge from-layer="3254" from-port="2" to-layer="3256" to-port="0" />
		<edge from-layer="3255" from-port="0" to-layer="3256" to-port="1" />
		<edge from-layer="3256" from-port="2" to-layer="3257" to-port="0" />
		<edge from-layer="3257" from-port="1" to-layer="3258" to-port="1" />
		<edge from-layer="3258" from-port="2" to-layer="3260" to-port="0" />
		<edge from-layer="3259" from-port="0" to-layer="3260" to-port="1" />
		<edge from-layer="3260" from-port="2" to-layer="3262" to-port="0" />
		<edge from-layer="3261" from-port="0" to-layer="3262" to-port="1" />
		<edge from-layer="3262" from-port="2" to-layer="3268" to-port="0" />
		<edge from-layer="3262" from-port="2" to-layer="3263" to-port="0" />
		<edge from-layer="3262" from-port="2" to-layer="3276" to-port="0" />
		<edge from-layer="3263" from-port="2" to-layer="3279" to-port="0" />
		<edge from-layer="3264" from-port="0" to-layer="3268" to-port="1" />
		<edge from-layer="3265" from-port="0" to-layer="3268" to-port="2" />
		<edge from-layer="3266" from-port="0" to-layer="3268" to-port="3" />
		<edge from-layer="3267" from-port="0" to-layer="3268" to-port="4" />
		<edge from-layer="3268" from-port="5" to-layer="3271" to-port="0" />
		<edge from-layer="3269" from-port="0" to-layer="3270" to-port="0" />
		<edge from-layer="3270" from-port="1" to-layer="3271" to-port="1" />
		<edge from-layer="3271" from-port="2" to-layer="3277" to-port="0" />
		<edge from-layer="3272" from-port="0" to-layer="3276" to-port="1" />
		<edge from-layer="3273" from-port="0" to-layer="3276" to-port="2" />
		<edge from-layer="3274" from-port="0" to-layer="3276" to-port="3" />
		<edge from-layer="3275" from-port="0" to-layer="3276" to-port="4" />
		<edge from-layer="3276" from-port="5" to-layer="3277" to-port="1" />
		<edge from-layer="3277" from-port="2" to-layer="3278" to-port="0" />
		<edge from-layer="3278" from-port="2" to-layer="3279" to-port="1" />
		<edge from-layer="3279" from-port="2" to-layer="3349" to-port="0" />
		<edge from-layer="3280" from-port="0" to-layer="3285" to-port="0" />
		<edge from-layer="3281" from-port="0" to-layer="3284" to-port="1" />
		<edge from-layer="3282" from-port="0" to-layer="3284" to-port="2" />
		<edge from-layer="3283" from-port="0" to-layer="3284" to-port="3" />
		<edge from-layer="3284" from-port="4" to-layer="3285" to-port="1" />
		<edge from-layer="3285" from-port="2" to-layer="3286" to-port="0" />
		<edge from-layer="3286" from-port="1" to-layer="3288" to-port="0" />
		<edge from-layer="3287" from-port="0" to-layer="3288" to-port="2" />
		<edge from-layer="3288" from-port="3" to-layer="3318" to-port="0" />
		<edge from-layer="3289" from-port="0" to-layer="3290" to-port="0" />
		<edge from-layer="3290" from-port="1" to-layer="3292" to-port="0" />
		<edge from-layer="3291" from-port="0" to-layer="3292" to-port="1" />
		<edge from-layer="3292" from-port="2" to-layer="3294" to-port="0" />
		<edge from-layer="3293" from-port="0" to-layer="3294" to-port="1" />
		<edge from-layer="3294" from-port="2" to-layer="3295" to-port="0" />
		<edge from-layer="3295" from-port="1" to-layer="3296" to-port="1" />
		<edge from-layer="3296" from-port="2" to-layer="3298" to-port="0" />
		<edge from-layer="3297" from-port="0" to-layer="3298" to-port="1" />
		<edge from-layer="3298" from-port="2" to-layer="3300" to-port="0" />
		<edge from-layer="3299" from-port="0" to-layer="3300" to-port="1" />
		<edge from-layer="3300" from-port="2" to-layer="3301" to-port="0" />
		<edge from-layer="3300" from-port="2" to-layer="3314" to-port="0" />
		<edge from-layer="3300" from-port="2" to-layer="3306" to-port="0" />
		<edge from-layer="3301" from-port="2" to-layer="3317" to-port="0" />
		<edge from-layer="3302" from-port="0" to-layer="3306" to-port="1" />
		<edge from-layer="3303" from-port="0" to-layer="3306" to-port="2" />
		<edge from-layer="3304" from-port="0" to-layer="3306" to-port="3" />
		<edge from-layer="3305" from-port="0" to-layer="3306" to-port="4" />
		<edge from-layer="3306" from-port="5" to-layer="3309" to-port="0" />
		<edge from-layer="3307" from-port="0" to-layer="3308" to-port="0" />
		<edge from-layer="3308" from-port="1" to-layer="3309" to-port="1" />
		<edge from-layer="3309" from-port="2" to-layer="3315" to-port="0" />
		<edge from-layer="3310" from-port="0" to-layer="3314" to-port="1" />
		<edge from-layer="3311" from-port="0" to-layer="3314" to-port="2" />
		<edge from-layer="3312" from-port="0" to-layer="3314" to-port="3" />
		<edge from-layer="3313" from-port="0" to-layer="3314" to-port="4" />
		<edge from-layer="3314" from-port="5" to-layer="3315" to-port="1" />
		<edge from-layer="3315" from-port="2" to-layer="3316" to-port="0" />
		<edge from-layer="3316" from-port="2" to-layer="3317" to-port="1" />
		<edge from-layer="3317" from-port="2" to-layer="3318" to-port="1" />
		<edge from-layer="3318" from-port="2" to-layer="3319" to-port="0" />
		<edge from-layer="3318" from-port="2" to-layer="3635" to-port="0" />
		<edge from-layer="3319" from-port="2" to-layer="3320" to-port="0" />
		<edge from-layer="3320" from-port="2" to-layer="3322" to-port="0" />
		<edge from-layer="3321" from-port="0" to-layer="3322" to-port="1" />
		<edge from-layer="3322" from-port="2" to-layer="3349" to-port="1" />
		<edge from-layer="3323" from-port="0" to-layer="3328" to-port="0" />
		<edge from-layer="3324" from-port="0" to-layer="3327" to-port="1" />
		<edge from-layer="3325" from-port="0" to-layer="3327" to-port="2" />
		<edge from-layer="3326" from-port="0" to-layer="3327" to-port="3" />
		<edge from-layer="3327" from-port="4" to-layer="3328" to-port="1" />
		<edge from-layer="3328" from-port="2" to-layer="3329" to-port="0" />
		<edge from-layer="3329" from-port="1" to-layer="3331" to-port="0" />
		<edge from-layer="3330" from-port="0" to-layer="3331" to-port="2" />
		<edge from-layer="3331" from-port="3" to-layer="3344" to-port="0" />
		<edge from-layer="3332" from-port="0" to-layer="3333" to-port="0" />
		<edge from-layer="3333" from-port="1" to-layer="3335" to-port="0" />
		<edge from-layer="3334" from-port="0" to-layer="3335" to-port="1" />
		<edge from-layer="3335" from-port="2" to-layer="3337" to-port="0" />
		<edge from-layer="3336" from-port="0" to-layer="3337" to-port="1" />
		<edge from-layer="3337" from-port="2" to-layer="3338" to-port="0" />
		<edge from-layer="3338" from-port="1" to-layer="3339" to-port="1" />
		<edge from-layer="3339" from-port="2" to-layer="3341" to-port="0" />
		<edge from-layer="3340" from-port="0" to-layer="3341" to-port="1" />
		<edge from-layer="3341" from-port="2" to-layer="3343" to-port="0" />
		<edge from-layer="3342" from-port="0" to-layer="3343" to-port="1" />
		<edge from-layer="3343" from-port="2" to-layer="3344" to-port="1" />
		<edge from-layer="3344" from-port="2" to-layer="3634" to-port="0" />
		<edge from-layer="3344" from-port="2" to-layer="3345" to-port="0" />
		<edge from-layer="3345" from-port="2" to-layer="3346" to-port="0" />
		<edge from-layer="3346" from-port="2" to-layer="3348" to-port="0" />
		<edge from-layer="3347" from-port="0" to-layer="3348" to-port="1" />
		<edge from-layer="3348" from-port="2" to-layer="3349" to-port="2" />
		<edge from-layer="3349" from-port="5" to-layer="3351" to-port="0" />
		<edge from-layer="3350" from-port="0" to-layer="3351" to-port="1" />
		<edge from-layer="3351" from-port="2" to-layer="3353" to-port="0" />
		<edge from-layer="3352" from-port="0" to-layer="3353" to-port="1" />
		<edge from-layer="3353" from-port="2" to-layer="3361" to-port="0" />
		<edge from-layer="3354" from-port="0" to-layer="3355" to-port="0" />
		<edge from-layer="3355" from-port="1" to-layer="3357" to-port="0" />
		<edge from-layer="3356" from-port="0" to-layer="3357" to-port="1" />
		<edge from-layer="3357" from-port="2" to-layer="3359" to-port="0" />
		<edge from-layer="3358" from-port="0" to-layer="3359" to-port="1" />
		<edge from-layer="3359" from-port="2" to-layer="3360" to-port="0" />
		<edge from-layer="3360" from-port="1" to-layer="3361" to-port="1" />
		<edge from-layer="3361" from-port="2" to-layer="3362" to-port="1" />
		<edge from-layer="3362" from-port="2" to-layer="3373" to-port="0" />
		<edge from-layer="3362" from-port="2" to-layer="3366" to-port="0" />
		<edge from-layer="3362" from-port="2" to-layer="3401" to-port="0" />
		<edge from-layer="3363" from-port="0" to-layer="3374" to-port="0" />
		<edge from-layer="3364" from-port="0" to-layer="3372" to-port="0" />
		<edge from-layer="3365" from-port="0" to-layer="3366" to-port="1" />
		<edge from-layer="3366" from-port="2" to-layer="3368" to-port="0" />
		<edge from-layer="3367" from-port="0" to-layer="3368" to-port="1" />
		<edge from-layer="3368" from-port="2" to-layer="3370" to-port="0" />
		<edge from-layer="3369" from-port="0" to-layer="3370" to-port="1" />
		<edge from-layer="3370" from-port="2" to-layer="3371" to-port="0" />
		<edge from-layer="3371" from-port="1" to-layer="3372" to-port="1" />
		<edge from-layer="3372" from-port="2" to-layer="3373" to-port="1" />
		<edge from-layer="3373" from-port="2" to-layer="3374" to-port="1" />
		<edge from-layer="3374" from-port="2" to-layer="3382" to-port="0" />
		<edge from-layer="3374" from-port="2" to-layer="3391" to-port="0" />
		<edge from-layer="3375" from-port="0" to-layer="3376" to-port="0" />
		<edge from-layer="3376" from-port="1" to-layer="3378" to-port="0" />
		<edge from-layer="3377" from-port="0" to-layer="3378" to-port="1" />
		<edge from-layer="3378" from-port="2" to-layer="3380" to-port="0" />
		<edge from-layer="3379" from-port="0" to-layer="3380" to-port="1" />
		<edge from-layer="3380" from-port="2" to-layer="3381" to-port="0" />
		<edge from-layer="3381" from-port="1" to-layer="3382" to-port="1" />
		<edge from-layer="3382" from-port="2" to-layer="3383" to-port="0" />
		<edge from-layer="3383" from-port="1" to-layer="3392" to-port="0" />
		<edge from-layer="3384" from-port="0" to-layer="3385" to-port="0" />
		<edge from-layer="3385" from-port="1" to-layer="3387" to-port="0" />
		<edge from-layer="3386" from-port="0" to-layer="3387" to-port="1" />
		<edge from-layer="3387" from-port="2" to-layer="3389" to-port="0" />
		<edge from-layer="3388" from-port="0" to-layer="3389" to-port="1" />
		<edge from-layer="3389" from-port="2" to-layer="3390" to-port="0" />
		<edge from-layer="3390" from-port="1" to-layer="3391" to-port="1" />
		<edge from-layer="3391" from-port="2" to-layer="3392" to-port="1" />
		<edge from-layer="3392" from-port="2" to-layer="3400" to-port="0" />
		<edge from-layer="3393" from-port="0" to-layer="3394" to-port="0" />
		<edge from-layer="3394" from-port="1" to-layer="3396" to-port="0" />
		<edge from-layer="3395" from-port="0" to-layer="3396" to-port="1" />
		<edge from-layer="3396" from-port="2" to-layer="3398" to-port="0" />
		<edge from-layer="3397" from-port="0" to-layer="3398" to-port="1" />
		<edge from-layer="3398" from-port="2" to-layer="3399" to-port="0" />
		<edge from-layer="3399" from-port="1" to-layer="3400" to-port="1" />
		<edge from-layer="3400" from-port="2" to-layer="3401" to-port="1" />
		<edge from-layer="3401" from-port="2" to-layer="3412" to-port="0" />
		<edge from-layer="3401" from-port="2" to-layer="3525" to-port="0" />
		<edge from-layer="3401" from-port="2" to-layer="3405" to-port="0" />
		<edge from-layer="3402" from-port="0" to-layer="3413" to-port="0" />
		<edge from-layer="3403" from-port="0" to-layer="3411" to-port="0" />
		<edge from-layer="3404" from-port="0" to-layer="3405" to-port="1" />
		<edge from-layer="3405" from-port="2" to-layer="3407" to-port="0" />
		<edge from-layer="3406" from-port="0" to-layer="3407" to-port="1" />
		<edge from-layer="3407" from-port="2" to-layer="3409" to-port="0" />
		<edge from-layer="3408" from-port="0" to-layer="3409" to-port="1" />
		<edge from-layer="3409" from-port="2" to-layer="3410" to-port="0" />
		<edge from-layer="3410" from-port="1" to-layer="3411" to-port="1" />
		<edge from-layer="3411" from-port="2" to-layer="3412" to-port="1" />
		<edge from-layer="3412" from-port="2" to-layer="3413" to-port="1" />
		<edge from-layer="3413" from-port="2" to-layer="3459" to-port="0" />
		<edge from-layer="3413" from-port="2" to-layer="3502" to-port="0" />
		<edge from-layer="3413" from-port="2" to-layer="3421" to-port="0" />
		<edge from-layer="3414" from-port="0" to-layer="3415" to-port="0" />
		<edge from-layer="3415" from-port="1" to-layer="3417" to-port="0" />
		<edge from-layer="3416" from-port="0" to-layer="3417" to-port="1" />
		<edge from-layer="3417" from-port="2" to-layer="3419" to-port="0" />
		<edge from-layer="3418" from-port="0" to-layer="3419" to-port="1" />
		<edge from-layer="3419" from-port="2" to-layer="3420" to-port="0" />
		<edge from-layer="3420" from-port="1" to-layer="3421" to-port="1" />
		<edge from-layer="3421" from-port="2" to-layer="3423" to-port="0" />
		<edge from-layer="3422" from-port="0" to-layer="3423" to-port="1" />
		<edge from-layer="3423" from-port="2" to-layer="3425" to-port="0" />
		<edge from-layer="3424" from-port="0" to-layer="3425" to-port="1" />
		<edge from-layer="3425" from-port="2" to-layer="3439" to-port="0" />
		<edge from-layer="3425" from-port="2" to-layer="3426" to-port="0" />
		<edge from-layer="3425" from-port="2" to-layer="3431" to-port="0" />
		<edge from-layer="3426" from-port="2" to-layer="3442" to-port="0" />
		<edge from-layer="3427" from-port="0" to-layer="3431" to-port="1" />
		<edge from-layer="3428" from-port="0" to-layer="3431" to-port="2" />
		<edge from-layer="3429" from-port="0" to-layer="3431" to-port="3" />
		<edge from-layer="3430" from-port="0" to-layer="3431" to-port="4" />
		<edge from-layer="3431" from-port="5" to-layer="3434" to-port="0" />
		<edge from-layer="3432" from-port="0" to-layer="3433" to-port="0" />
		<edge from-layer="3433" from-port="1" to-layer="3434" to-port="1" />
		<edge from-layer="3434" from-port="2" to-layer="3440" to-port="0" />
		<edge from-layer="3435" from-port="0" to-layer="3439" to-port="1" />
		<edge from-layer="3436" from-port="0" to-layer="3439" to-port="2" />
		<edge from-layer="3437" from-port="0" to-layer="3439" to-port="3" />
		<edge from-layer="3438" from-port="0" to-layer="3439" to-port="4" />
		<edge from-layer="3439" from-port="5" to-layer="3440" to-port="1" />
		<edge from-layer="3440" from-port="2" to-layer="3441" to-port="0" />
		<edge from-layer="3441" from-port="2" to-layer="3442" to-port="1" />
		<edge from-layer="3442" from-port="2" to-layer="3512" to-port="0" />
		<edge from-layer="3443" from-port="0" to-layer="3448" to-port="0" />
		<edge from-layer="3444" from-port="0" to-layer="3447" to-port="1" />
		<edge from-layer="3445" from-port="0" to-layer="3447" to-port="2" />
		<edge from-layer="3446" from-port="0" to-layer="3447" to-port="3" />
		<edge from-layer="3447" from-port="4" to-layer="3448" to-port="1" />
		<edge from-layer="3448" from-port="2" to-layer="3449" to-port="0" />
		<edge from-layer="3449" from-port="1" to-layer="3451" to-port="0" />
		<edge from-layer="3450" from-port="0" to-layer="3451" to-port="2" />
		<edge from-layer="3451" from-port="3" to-layer="3481" to-port="0" />
		<edge from-layer="3452" from-port="0" to-layer="3453" to-port="0" />
		<edge from-layer="3453" from-port="1" to-layer="3455" to-port="0" />
		<edge from-layer="3454" from-port="0" to-layer="3455" to-port="1" />
		<edge from-layer="3455" from-port="2" to-layer="3457" to-port="0" />
		<edge from-layer="3456" from-port="0" to-layer="3457" to-port="1" />
		<edge from-layer="3457" from-port="2" to-layer="3458" to-port="0" />
		<edge from-layer="3458" from-port="1" to-layer="3459" to-port="1" />
		<edge from-layer="3459" from-port="2" to-layer="3461" to-port="0" />
		<edge from-layer="3460" from-port="0" to-layer="3461" to-port="1" />
		<edge from-layer="3461" from-port="2" to-layer="3463" to-port="0" />
		<edge from-layer="3462" from-port="0" to-layer="3463" to-port="1" />
		<edge from-layer="3463" from-port="2" to-layer="3469" to-port="0" />
		<edge from-layer="3463" from-port="2" to-layer="3464" to-port="0" />
		<edge from-layer="3463" from-port="2" to-layer="3477" to-port="0" />
		<edge from-layer="3464" from-port="2" to-layer="3480" to-port="0" />
		<edge from-layer="3465" from-port="0" to-layer="3469" to-port="1" />
		<edge from-layer="3466" from-port="0" to-layer="3469" to-port="2" />
		<edge from-layer="3467" from-port="0" to-layer="3469" to-port="3" />
		<edge from-layer="3468" from-port="0" to-layer="3469" to-port="4" />
		<edge from-layer="3469" from-port="5" to-layer="3472" to-port="0" />
		<edge from-layer="3470" from-port="0" to-layer="3471" to-port="0" />
		<edge from-layer="3471" from-port="1" to-layer="3472" to-port="1" />
		<edge from-layer="3472" from-port="2" to-layer="3478" to-port="0" />
		<edge from-layer="3473" from-port="0" to-layer="3477" to-port="1" />
		<edge from-layer="3474" from-port="0" to-layer="3477" to-port="2" />
		<edge from-layer="3475" from-port="0" to-layer="3477" to-port="3" />
		<edge from-layer="3476" from-port="0" to-layer="3477" to-port="4" />
		<edge from-layer="3477" from-port="5" to-layer="3478" to-port="1" />
		<edge from-layer="3478" from-port="2" to-layer="3479" to-port="0" />
		<edge from-layer="3479" from-port="2" to-layer="3480" to-port="1" />
		<edge from-layer="3480" from-port="2" to-layer="3481" to-port="1" />
		<edge from-layer="3481" from-port="2" to-layer="3482" to-port="0" />
		<edge from-layer="3481" from-port="2" to-layer="3631" to-port="0" />
		<edge from-layer="3482" from-port="2" to-layer="3483" to-port="0" />
		<edge from-layer="3483" from-port="2" to-layer="3485" to-port="0" />
		<edge from-layer="3484" from-port="0" to-layer="3485" to-port="1" />
		<edge from-layer="3485" from-port="2" to-layer="3512" to-port="1" />
		<edge from-layer="3486" from-port="0" to-layer="3491" to-port="0" />
		<edge from-layer="3487" from-port="0" to-layer="3490" to-port="1" />
		<edge from-layer="3488" from-port="0" to-layer="3490" to-port="2" />
		<edge from-layer="3489" from-port="0" to-layer="3490" to-port="3" />
		<edge from-layer="3490" from-port="4" to-layer="3491" to-port="1" />
		<edge from-layer="3491" from-port="2" to-layer="3492" to-port="0" />
		<edge from-layer="3492" from-port="1" to-layer="3494" to-port="0" />
		<edge from-layer="3493" from-port="0" to-layer="3494" to-port="2" />
		<edge from-layer="3494" from-port="3" to-layer="3507" to-port="0" />
		<edge from-layer="3495" from-port="0" to-layer="3496" to-port="0" />
		<edge from-layer="3496" from-port="1" to-layer="3498" to-port="0" />
		<edge from-layer="3497" from-port="0" to-layer="3498" to-port="1" />
		<edge from-layer="3498" from-port="2" to-layer="3500" to-port="0" />
		<edge from-layer="3499" from-port="0" to-layer="3500" to-port="1" />
		<edge from-layer="3500" from-port="2" to-layer="3501" to-port="0" />
		<edge from-layer="3501" from-port="1" to-layer="3502" to-port="1" />
		<edge from-layer="3502" from-port="2" to-layer="3504" to-port="0" />
		<edge from-layer="3503" from-port="0" to-layer="3504" to-port="1" />
		<edge from-layer="3504" from-port="2" to-layer="3506" to-port="0" />
		<edge from-layer="3505" from-port="0" to-layer="3506" to-port="1" />
		<edge from-layer="3506" from-port="2" to-layer="3507" to-port="1" />
		<edge from-layer="3507" from-port="2" to-layer="3630" to-port="0" />
		<edge from-layer="3507" from-port="2" to-layer="3508" to-port="0" />
		<edge from-layer="3508" from-port="2" to-layer="3509" to-port="0" />
		<edge from-layer="3509" from-port="2" to-layer="3511" to-port="0" />
		<edge from-layer="3510" from-port="0" to-layer="3511" to-port="1" />
		<edge from-layer="3511" from-port="2" to-layer="3512" to-port="2" />
		<edge from-layer="3512" from-port="5" to-layer="3514" to-port="0" />
		<edge from-layer="3513" from-port="0" to-layer="3514" to-port="1" />
		<edge from-layer="3514" from-port="2" to-layer="3516" to-port="0" />
		<edge from-layer="3515" from-port="0" to-layer="3516" to-port="1" />
		<edge from-layer="3516" from-port="2" to-layer="3524" to-port="0" />
		<edge from-layer="3517" from-port="0" to-layer="3518" to-port="0" />
		<edge from-layer="3518" from-port="1" to-layer="3520" to-port="0" />
		<edge from-layer="3519" from-port="0" to-layer="3520" to-port="1" />
		<edge from-layer="3520" from-port="2" to-layer="3522" to-port="0" />
		<edge from-layer="3521" from-port="0" to-layer="3522" to-port="1" />
		<edge from-layer="3522" from-port="2" to-layer="3523" to-port="0" />
		<edge from-layer="3523" from-port="1" to-layer="3524" to-port="1" />
		<edge from-layer="3524" from-port="2" to-layer="3525" to-port="1" />
		<edge from-layer="3525" from-port="2" to-layer="3564" to-port="0" />
		<edge from-layer="3525" from-port="2" to-layer="3536" to-port="0" />
		<edge from-layer="3525" from-port="2" to-layer="3529" to-port="0" />
		<edge from-layer="3526" from-port="0" to-layer="3537" to-port="0" />
		<edge from-layer="3527" from-port="0" to-layer="3535" to-port="0" />
		<edge from-layer="3528" from-port="0" to-layer="3529" to-port="1" />
		<edge from-layer="3529" from-port="2" to-layer="3531" to-port="0" />
		<edge from-layer="3530" from-port="0" to-layer="3531" to-port="1" />
		<edge from-layer="3531" from-port="2" to-layer="3533" to-port="0" />
		<edge from-layer="3532" from-port="0" to-layer="3533" to-port="1" />
		<edge from-layer="3533" from-port="2" to-layer="3534" to-port="0" />
		<edge from-layer="3534" from-port="1" to-layer="3535" to-port="1" />
		<edge from-layer="3535" from-port="2" to-layer="3536" to-port="1" />
		<edge from-layer="3536" from-port="2" to-layer="3537" to-port="1" />
		<edge from-layer="3537" from-port="2" to-layer="3545" to-port="0" />
		<edge from-layer="3537" from-port="2" to-layer="3554" to-port="0" />
		<edge from-layer="3538" from-port="0" to-layer="3539" to-port="0" />
		<edge from-layer="3539" from-port="1" to-layer="3541" to-port="0" />
		<edge from-layer="3540" from-port="0" to-layer="3541" to-port="1" />
		<edge from-layer="3541" from-port="2" to-layer="3543" to-port="0" />
		<edge from-layer="3542" from-port="0" to-layer="3543" to-port="1" />
		<edge from-layer="3543" from-port="2" to-layer="3544" to-port="0" />
		<edge from-layer="3544" from-port="1" to-layer="3545" to-port="1" />
		<edge from-layer="3545" from-port="2" to-layer="3546" to-port="0" />
		<edge from-layer="3546" from-port="1" to-layer="3555" to-port="0" />
		<edge from-layer="3547" from-port="0" to-layer="3548" to-port="0" />
		<edge from-layer="3548" from-port="1" to-layer="3550" to-port="0" />
		<edge from-layer="3549" from-port="0" to-layer="3550" to-port="1" />
		<edge from-layer="3550" from-port="2" to-layer="3552" to-port="0" />
		<edge from-layer="3551" from-port="0" to-layer="3552" to-port="1" />
		<edge from-layer="3552" from-port="2" to-layer="3553" to-port="0" />
		<edge from-layer="3553" from-port="1" to-layer="3554" to-port="1" />
		<edge from-layer="3554" from-port="2" to-layer="3555" to-port="1" />
		<edge from-layer="3555" from-port="2" to-layer="3563" to-port="0" />
		<edge from-layer="3556" from-port="0" to-layer="3557" to-port="0" />
		<edge from-layer="3557" from-port="1" to-layer="3559" to-port="0" />
		<edge from-layer="3558" from-port="0" to-layer="3559" to-port="1" />
		<edge from-layer="3559" from-port="2" to-layer="3561" to-port="0" />
		<edge from-layer="3560" from-port="0" to-layer="3561" to-port="1" />
		<edge from-layer="3561" from-port="2" to-layer="3562" to-port="0" />
		<edge from-layer="3562" from-port="1" to-layer="3563" to-port="1" />
		<edge from-layer="3563" from-port="2" to-layer="3564" to-port="1" />
		<edge from-layer="3564" from-port="2" to-layer="3567" to-port="0" />
		<edge from-layer="3564" from-port="2" to-layer="3709" to-port="0" />
		<edge from-layer="3564" from-port="2" to-layer="3574" to-port="0" />
		<edge from-layer="3565" from-port="0" to-layer="3573" to-port="0" />
		<edge from-layer="3566" from-port="0" to-layer="3567" to-port="1" />
		<edge from-layer="3567" from-port="2" to-layer="3569" to-port="0" />
		<edge from-layer="3568" from-port="0" to-layer="3569" to-port="1" />
		<edge from-layer="3569" from-port="2" to-layer="3571" to-port="0" />
		<edge from-layer="3570" from-port="0" to-layer="3571" to-port="1" />
		<edge from-layer="3571" from-port="2" to-layer="3572" to-port="0" />
		<edge from-layer="3572" from-port="1" to-layer="3573" to-port="1" />
		<edge from-layer="3573" from-port="2" to-layer="3574" to-port="1" />
		<edge from-layer="3574" from-port="2" to-layer="3575" to-port="1" />
		<edge from-layer="3575" from-port="2" to-layer="3666" to-port="0" />
		<edge from-layer="3575" from-port="2" to-layer="3606" to-port="0" />
		<edge from-layer="3575" from-port="2" to-layer="3583" to-port="0" />
		<edge from-layer="3576" from-port="0" to-layer="3577" to-port="0" />
		<edge from-layer="3577" from-port="1" to-layer="3579" to-port="0" />
		<edge from-layer="3578" from-port="0" to-layer="3579" to-port="1" />
		<edge from-layer="3579" from-port="2" to-layer="3581" to-port="0" />
		<edge from-layer="3580" from-port="0" to-layer="3581" to-port="1" />
		<edge from-layer="3581" from-port="2" to-layer="3582" to-port="0" />
		<edge from-layer="3582" from-port="1" to-layer="3583" to-port="1" />
		<edge from-layer="3583" from-port="2" to-layer="3585" to-port="0" />
		<edge from-layer="3584" from-port="0" to-layer="3585" to-port="1" />
		<edge from-layer="3585" from-port="2" to-layer="3587" to-port="0" />
		<edge from-layer="3586" from-port="0" to-layer="3587" to-port="1" />
		<edge from-layer="3587" from-port="2" to-layer="3588" to-port="1" />
		<edge from-layer="3588" from-port="2" to-layer="3589" to-port="0" />
		<edge from-layer="3588" from-port="2" to-layer="3692" to-port="0" />
		<edge from-layer="3590" from-port="0" to-layer="3595" to-port="0" />
		<edge from-layer="3591" from-port="0" to-layer="3594" to-port="1" />
		<edge from-layer="3592" from-port="0" to-layer="3594" to-port="2" />
		<edge from-layer="3593" from-port="0" to-layer="3594" to-port="3" />
		<edge from-layer="3594" from-port="4" to-layer="3595" to-port="1" />
		<edge from-layer="3595" from-port="2" to-layer="3596" to-port="0" />
		<edge from-layer="3596" from-port="1" to-layer="3598" to-port="0" />
		<edge from-layer="3597" from-port="0" to-layer="3598" to-port="2" />
		<edge from-layer="3598" from-port="3" to-layer="3628" to-port="0" />
		<edge from-layer="3599" from-port="0" to-layer="3600" to-port="0" />
		<edge from-layer="3600" from-port="1" to-layer="3602" to-port="0" />
		<edge from-layer="3601" from-port="0" to-layer="3602" to-port="1" />
		<edge from-layer="3602" from-port="2" to-layer="3604" to-port="0" />
		<edge from-layer="3603" from-port="0" to-layer="3604" to-port="1" />
		<edge from-layer="3604" from-port="2" to-layer="3605" to-port="0" />
		<edge from-layer="3605" from-port="1" to-layer="3606" to-port="1" />
		<edge from-layer="3606" from-port="2" to-layer="3608" to-port="0" />
		<edge from-layer="3607" from-port="0" to-layer="3608" to-port="1" />
		<edge from-layer="3608" from-port="2" to-layer="3610" to-port="0" />
		<edge from-layer="3609" from-port="0" to-layer="3610" to-port="1" />
		<edge from-layer="3610" from-port="2" to-layer="3624" to-port="0" />
		<edge from-layer="3610" from-port="2" to-layer="3611" to-port="0" />
		<edge from-layer="3610" from-port="2" to-layer="3616" to-port="0" />
		<edge from-layer="3611" from-port="2" to-layer="3627" to-port="0" />
		<edge from-layer="3612" from-port="0" to-layer="3616" to-port="1" />
		<edge from-layer="3613" from-port="0" to-layer="3616" to-port="2" />
		<edge from-layer="3614" from-port="0" to-layer="3616" to-port="3" />
		<edge from-layer="3615" from-port="0" to-layer="3616" to-port="4" />
		<edge from-layer="3616" from-port="5" to-layer="3619" to-port="0" />
		<edge from-layer="3617" from-port="0" to-layer="3618" to-port="0" />
		<edge from-layer="3618" from-port="1" to-layer="3619" to-port="1" />
		<edge from-layer="3619" from-port="2" to-layer="3625" to-port="0" />
		<edge from-layer="3620" from-port="0" to-layer="3624" to-port="1" />
		<edge from-layer="3621" from-port="0" to-layer="3624" to-port="2" />
		<edge from-layer="3622" from-port="0" to-layer="3624" to-port="3" />
		<edge from-layer="3623" from-port="0" to-layer="3624" to-port="4" />
		<edge from-layer="3624" from-port="5" to-layer="3625" to-port="1" />
		<edge from-layer="3625" from-port="2" to-layer="3626" to-port="0" />
		<edge from-layer="3626" from-port="2" to-layer="3627" to-port="1" />
		<edge from-layer="3627" from-port="2" to-layer="3628" to-port="1" />
		<edge from-layer="3628" from-port="2" to-layer="3629" to-port="0" />
		<edge from-layer="3628" from-port="2" to-layer="3688" to-port="0" />
		<edge from-layer="3658" from-port="0" to-layer="3759" to-port="0" />
		<edge from-layer="3659" from-port="0" to-layer="3660" to-port="0" />
		<edge from-layer="3660" from-port="1" to-layer="3662" to-port="0" />
		<edge from-layer="3661" from-port="0" to-layer="3662" to-port="1" />
		<edge from-layer="3662" from-port="2" to-layer="3664" to-port="0" />
		<edge from-layer="3663" from-port="0" to-layer="3664" to-port="1" />
		<edge from-layer="3664" from-port="2" to-layer="3665" to-port="0" />
		<edge from-layer="3665" from-port="1" to-layer="3666" to-port="1" />
		<edge from-layer="3666" from-port="2" to-layer="3668" to-port="0" />
		<edge from-layer="3667" from-port="0" to-layer="3668" to-port="1" />
		<edge from-layer="3668" from-port="2" to-layer="3670" to-port="0" />
		<edge from-layer="3669" from-port="0" to-layer="3670" to-port="1" />
		<edge from-layer="3670" from-port="2" to-layer="3684" to-port="0" />
		<edge from-layer="3670" from-port="2" to-layer="3671" to-port="0" />
		<edge from-layer="3670" from-port="2" to-layer="3676" to-port="0" />
		<edge from-layer="3671" from-port="2" to-layer="3687" to-port="0" />
		<edge from-layer="3672" from-port="0" to-layer="3676" to-port="1" />
		<edge from-layer="3673" from-port="0" to-layer="3676" to-port="2" />
		<edge from-layer="3674" from-port="0" to-layer="3676" to-port="3" />
		<edge from-layer="3675" from-port="0" to-layer="3676" to-port="4" />
		<edge from-layer="3676" from-port="5" to-layer="3679" to-port="0" />
		<edge from-layer="3677" from-port="0" to-layer="3678" to-port="0" />
		<edge from-layer="3678" from-port="1" to-layer="3679" to-port="1" />
		<edge from-layer="3679" from-port="2" to-layer="3685" to-port="0" />
		<edge from-layer="3680" from-port="0" to-layer="3684" to-port="1" />
		<edge from-layer="3681" from-port="0" to-layer="3684" to-port="2" />
		<edge from-layer="3682" from-port="0" to-layer="3684" to-port="3" />
		<edge from-layer="3683" from-port="0" to-layer="3684" to-port="4" />
		<edge from-layer="3684" from-port="5" to-layer="3685" to-port="1" />
		<edge from-layer="3685" from-port="2" to-layer="3686" to-port="0" />
		<edge from-layer="3686" from-port="2" to-layer="3687" to-port="1" />
		<edge from-layer="3687" from-port="2" to-layer="3696" to-port="0" />
		<edge from-layer="3688" from-port="2" to-layer="3689" to-port="0" />
		<edge from-layer="3689" from-port="2" to-layer="3691" to-port="0" />
		<edge from-layer="3690" from-port="0" to-layer="3691" to-port="1" />
		<edge from-layer="3691" from-port="2" to-layer="3696" to-port="1" />
		<edge from-layer="3692" from-port="2" to-layer="3693" to-port="0" />
		<edge from-layer="3693" from-port="2" to-layer="3695" to-port="0" />
		<edge from-layer="3694" from-port="0" to-layer="3695" to-port="1" />
		<edge from-layer="3695" from-port="2" to-layer="3696" to-port="2" />
		<edge from-layer="3696" from-port="5" to-layer="3698" to-port="0" />
		<edge from-layer="3697" from-port="0" to-layer="3698" to-port="1" />
		<edge from-layer="3698" from-port="2" to-layer="3700" to-port="0" />
		<edge from-layer="3699" from-port="0" to-layer="3700" to-port="1" />
		<edge from-layer="3700" from-port="2" to-layer="3708" to-port="0" />
		<edge from-layer="3701" from-port="0" to-layer="3702" to-port="0" />
		<edge from-layer="3702" from-port="1" to-layer="3704" to-port="0" />
		<edge from-layer="3703" from-port="0" to-layer="3704" to-port="1" />
		<edge from-layer="3704" from-port="2" to-layer="3706" to-port="0" />
		<edge from-layer="3705" from-port="0" to-layer="3706" to-port="1" />
		<edge from-layer="3706" from-port="2" to-layer="3707" to-port="0" />
		<edge from-layer="3707" from-port="1" to-layer="3708" to-port="1" />
		<edge from-layer="3708" from-port="2" to-layer="3709" to-port="1" />
		<edge from-layer="3709" from-port="2" to-layer="3720" to-port="0" />
		<edge from-layer="3709" from-port="2" to-layer="3748" to-port="0" />
		<edge from-layer="3709" from-port="2" to-layer="3713" to-port="0" />
		<edge from-layer="3710" from-port="0" to-layer="3721" to-port="0" />
		<edge from-layer="3711" from-port="0" to-layer="3719" to-port="0" />
		<edge from-layer="3712" from-port="0" to-layer="3713" to-port="1" />
		<edge from-layer="3713" from-port="2" to-layer="3715" to-port="0" />
		<edge from-layer="3714" from-port="0" to-layer="3715" to-port="1" />
		<edge from-layer="3715" from-port="2" to-layer="3717" to-port="0" />
		<edge from-layer="3716" from-port="0" to-layer="3717" to-port="1" />
		<edge from-layer="3717" from-port="2" to-layer="3718" to-port="0" />
		<edge from-layer="3718" from-port="1" to-layer="3719" to-port="1" />
		<edge from-layer="3719" from-port="2" to-layer="3720" to-port="1" />
		<edge from-layer="3720" from-port="2" to-layer="3721" to-port="1" />
		<edge from-layer="3721" from-port="2" to-layer="3738" to-port="0" />
		<edge from-layer="3721" from-port="2" to-layer="3729" to-port="0" />
		<edge from-layer="3722" from-port="0" to-layer="3723" to-port="0" />
		<edge from-layer="3723" from-port="1" to-layer="3725" to-port="0" />
		<edge from-layer="3724" from-port="0" to-layer="3725" to-port="1" />
		<edge from-layer="3725" from-port="2" to-layer="3727" to-port="0" />
		<edge from-layer="3726" from-port="0" to-layer="3727" to-port="1" />
		<edge from-layer="3727" from-port="2" to-layer="3728" to-port="0" />
		<edge from-layer="3728" from-port="1" to-layer="3729" to-port="1" />
		<edge from-layer="3729" from-port="2" to-layer="3730" to-port="0" />
		<edge from-layer="3730" from-port="1" to-layer="3739" to-port="0" />
		<edge from-layer="3731" from-port="0" to-layer="3732" to-port="0" />
		<edge from-layer="3732" from-port="1" to-layer="3734" to-port="0" />
		<edge from-layer="3733" from-port="0" to-layer="3734" to-port="1" />
		<edge from-layer="3734" from-port="2" to-layer="3736" to-port="0" />
		<edge from-layer="3735" from-port="0" to-layer="3736" to-port="1" />
		<edge from-layer="3736" from-port="2" to-layer="3737" to-port="0" />
		<edge from-layer="3737" from-port="1" to-layer="3738" to-port="1" />
		<edge from-layer="3738" from-port="2" to-layer="3739" to-port="1" />
		<edge from-layer="3739" from-port="2" to-layer="3747" to-port="0" />
		<edge from-layer="3740" from-port="0" to-layer="3741" to-port="0" />
		<edge from-layer="3741" from-port="1" to-layer="3743" to-port="0" />
		<edge from-layer="3742" from-port="0" to-layer="3743" to-port="1" />
		<edge from-layer="3743" from-port="2" to-layer="3745" to-port="0" />
		<edge from-layer="3744" from-port="0" to-layer="3745" to-port="1" />
		<edge from-layer="3745" from-port="2" to-layer="3746" to-port="0" />
		<edge from-layer="3746" from-port="1" to-layer="3747" to-port="1" />
		<edge from-layer="3747" from-port="2" to-layer="3748" to-port="1" />
		<edge from-layer="3748" from-port="2" to-layer="3751" to-port="0" />
		<edge from-layer="3748" from-port="2" to-layer="3758" to-port="0" />
		<edge from-layer="3749" from-port="0" to-layer="3757" to-port="0" />
		<edge from-layer="3750" from-port="0" to-layer="3751" to-port="1" />
		<edge from-layer="3751" from-port="2" to-layer="3753" to-port="0" />
		<edge from-layer="3752" from-port="0" to-layer="3753" to-port="1" />
		<edge from-layer="3753" from-port="2" to-layer="3755" to-port="0" />
		<edge from-layer="3754" from-port="0" to-layer="3755" to-port="1" />
		<edge from-layer="3755" from-port="2" to-layer="3756" to-port="0" />
		<edge from-layer="3756" from-port="1" to-layer="3757" to-port="1" />
		<edge from-layer="3757" from-port="2" to-layer="3758" to-port="1" />
		<edge from-layer="3758" from-port="2" to-layer="3759" to-port="1" />
		<edge from-layer="3759" from-port="2" to-layer="3768" to-port="0" />
		<edge from-layer="3760" from-port="0" to-layer="3761" to-port="0" />
		<edge from-layer="3761" from-port="1" to-layer="3764" to-port="0" />
		<edge from-layer="3762" from-port="0" to-layer="3763" to-port="0" />
		<edge from-layer="3763" from-port="1" to-layer="3764" to-port="1" />
		<edge from-layer="3764" from-port="2" to-layer="3766" to-port="0" />
		<edge from-layer="3765" from-port="0" to-layer="3766" to-port="1" />
		<edge from-layer="3766" from-port="2" to-layer="3767" to-port="0" />
		<edge from-layer="3767" from-port="1" to-layer="3768" to-port="1" />
		<edge from-layer="3768" from-port="2" to-layer="3769" to-port="0" />
	</edges>
	<rt_info>
		<Runtime_version value="2025.4.0-20398-7a975177ff4-releases/2025/4" />
		<conversion_parameters>
			<framework value="pytorch" />
			<is_python_object value="True" />
		</conversion_parameters>
		<nncf>
			<friendly_names_were_updated value="True" />
			<version value="2.19.0" />
			<weight_compression>
				<advanced_parameters value="{'statistics_path': None, 'lora_adapter_rank': 256, 'group_size_fallback_mode': 'error', 'min_adjusted_group_size': 32, 'awq_params': {'subset_size': 32, 'percent_to_apply': 0.002, 'alpha_min': 0.0, 'alpha_max': 1.0, 'steps': 100, 'prefer_data_aware_scaling': True}, 'scale_estimation_params': {'subset_size': 64, 'initial_steps': 5, 'scale_steps': 5, 'weight_penalty': -1.0}, 'gptq_params': {'damp_percent': 0.1, 'block_size': 128, 'subset_size': 128}, 'lora_correction_params': {'adapter_rank': 8, 'num_iterations': 3, 'apply_regularization': True, 'subset_size': 128, 'use_int8_adapters': True}, 'backend_params': {}, 'codebook': None}" />
				<all_layers value="False" />
				<awq value="False" />
				<backup_mode value="int8_asym" />
				<compression_format value="dequantize" />
				<gptq value="False" />
				<group_size value="128" />
				<ignored_scope value="[]" />
				<lora_correction value="False" />
				<mode value="int4_sym" />
				<ratio value="1.0" />
				<scale_estimation value="False" />
				<sensitivity_metric value="weight_quantization_error" />
			</weight_compression>
		</nncf>
		<optimum>
			<nncf_version value="2.19.0.dev0+473ef3228" />
			<optimum_intel_version value="1.27.0.dev0+906008d" />
			<optimum_version value="2.0.0" />
			<pytorch_version value="2.9.1+cpu" />
			<transformers_version value="4.55.4" />
		</optimum>
		<runtime_options>
			<ACTIVATIONS_SCALE_FACTOR value="8.0" />
		</runtime_options>
	</rt_info>
</net>
